trained_networks/adversarial_trained_net.pth (torch, 252293 bytes, 10 tensors)

conv1.weight f4 [6, 3, 5, 5]
000000 23 10 03 bd 50 ed fd be da ad 5c bf 24 51 b3 be
       -0.03199781 -0.49595118 -0.86202776 -0.35022843
000010 3f b1 d0 bd d2 d4 a6 3e c1 c9 29 3f 19 7c 6a 3f
       -0.10190057 0.32584244 0.6632348 0.9159561
000020 19 4c 1e 3f 45 df 8a 3c 7d 1f 1e 3f 7a 01 5c 3f
       0.61834866 0.016952166 0.617668 0.85939753
000030 5e 84 65 3f e9 57 47 3f ff d9 6f 3d 6f c1 37 be
       0.896551 0.77868515 0.058557507 -0.17944883
000040 0c 97 17 bf fc 15 53 bf 11 94 a8 be fe 67 18 be
       -0.59214854 -0.8245542 -0.32925466 -0.1488342
000050 23 c9 ba bd 67 8c ee bd ae 7b 2e be 2f ef 68 be
       -0.09120395 -0.11647873 -0.17039368 -0.22747491
000060 60 ef d0 bd b6 e0 67 3d e3 98 b8 be a5 2a 26 bf
       -0.10201907 0.056610785 -0.36054143 -0.6490882
000070 43 f9 03 be 0e 38 96 3d 30 b2 82 bc b8 dd a0 3e
       -0.12888055 0.0733491 -0.015954107 0.31419158
000080 c7 ed 08 3f 39 a5 e2 3e c7 be 78 bd 28 02 fe 3d
       0.5348782 0.4426668 -0.060728814 0.12402755
000090 d6 67 22 3f 39 0a 38 3f 17 e3 95 3e 1b ff ff bb
       0.6343969 0.718906 0.29274818 -0.0078123934
0000a0 ea 07 6a be 03 12 3c bf ad 35 4f bf df 11 f7 be
       -0.22854581 -0.73464984 -0.8094128 -0.48255822
0000b0 29 f0 29 be f0 44 82 3b 24 a4 28 be c8 37 7d be
       -0.1659552 0.003975503 -0.16468865 -0.2472831
0000c0 1b 89 4c be eb 3c ac bd 60 c0 d6 3c 60 b1 fe bd
       -0.19974177 -0.08410057 0.026214778 -0.12436175
0000d0 2c 9e dc be 79 46 50 bd 4a 97 01 3f b4 99 2e be
       -0.43089426 -0.050848458 0.50621474 -0.1705082
0000e0 c5 d7 06 3d c6 45 98 bb 5f c3 df bd 48 d2 13 be
       0.032920618 -0.0046469895 -0.10925936 -0.14435685
0000f0 99 c4 96 3d b8 9a f4 3e 70 33 0b 3f db 28 2f 3e
       0.07361717 0.4777429 0.5437536 0.17105429
000100 70 82 12 3d db af d5 bd 84 17 e0 be b7 c3 10 bf
       0.035768926 -0.104339324 -0.4376794 -0.5654864
000110 f6 32 91 be 0d bf 70 3e 0d a8 17 3d 48 89 9e 3e
       -0.28359193 0.2351038 0.0370255 0.30964112
000120 0a 5c 50 3e 6c c7 6d 3e 11 92 86 3e 80 47 09 3f
       0.2034761 0.23220605 0.26283315 0.53624725
000130 5b bf 9b 3e 54 ce 9a 3d 4e 52 56 bd c8 ac 42 be
       0.3041943 0.07558885 -0.052324586 -0.19011223
000140 d6 95 77 3e 39 59 4b bd ba ba 17 bd 0f 8e 65 3e
       0.24178252 -0.049645636 -0.03704331 0.22417472
000150 8f dc 95 3e 77 bc 5f be 44 52 46 be 26 dc 95 3e
       0.29269835 -0.21849237 -0.1936732 0.29269522
000160 91 85 9d 3e b7 a1 3e 3e 6c 7e 43 be e2 07 de 3c
       0.30765966 0.18616377 -0.19091195 0.027103368
000170 8d 2f 99 3e a6 9a 94 3e 56 9e 25 3e 4e 12 b5 be
       0.2991909 0.29024237 0.16173682 -0.35365528
000180 78 bc c5 3d 16 df 0d 3e 85 56 43 be 75 04 39 3d
       0.09655088 0.13854632 -0.19075973 0.045170266
000190 3e d5 a0 bd 76 df ac be 92 75 89 be af 85 0e be
       -0.07853173 -0.33764237 -0.26847512 -0.13918184
0001a0 71 61 40 be a6 98 8d be 07 0c f8 be a0 39 c5 be
       -0.18787171 -0.27655524 -0.48446676 -0.38520527
0001b0 4a 92 ef 3d fa 18 10 3e e3 56 fd be 33 66 ff be
       0.11697824 0.14072028 -0.49480352 -0.4988266
0001c0 8a 8b 43 3b f5 20 ef 3d 65 c6 39 3d de bd cb be
       0.002983781 0.11676208 0.04535522 -0.39793295
0001d0 a6 28 7f be 7d 23 2b 3d 93 29 a4 bd d2 47 e6 3c
       -0.2491785 0.04178189 -0.08015742 0.028110418
0001e0 a0 4d a1 bd 67 06 82 bd 64 52 14 be ff 68 89 be
       -0.07876134 -0.063488774 -0.14484555 -0.26837918
0001f0 c9 2f ce bc 37 24 fd bd 1d d7 dd bd 0f 0c 19 3e
       -0.02516927 -0.12360423 -0.10832045 0.14946006
000200 a5 61 47 3e b5 fe 1f 3e 12 8d 51 be a4 4e 11 bf
       0.19470842 0.15624507 -0.2046397 -0.5676062
000210 50 e1 5e be 11 e7 cf 3e 1f b2 fa 3e d8 42 16 bf
       -0.21765637 0.40605977 0.4896402 -0.58695745
000220 c1 d1 dd be 5c 3b 74 3e 9a 10 0a 3f d2 8f 6f 3e
       -0.43324092 0.23850769 0.5393158 0.23394707
000230 c6 ba eb be ec 18 32 bd 29 ea c1 3e 48 7d a5 3e
       -0.46040934 -0.0434808 0.37873963 0.32322145
000240 f7 0c 48 3e b6 34 f9 3c 93 bd 93 3e 23 f2 86 3e
       0.19536196 0.030420642 0.2885557 0.2635661
000250 4a 9e dc 3d 34 4f 75 3e 1d 45 00 3f 9a 5f e9 3e
       0.10772379 0.23955995 0.5010546 0.4558075
000260 ba c3 de ba 7b cc 2a 3e 0e 28 80 3e 72 40 eb 3e
       -0.0016995587 0.16679566 0.2503056 0.45947605
000270 b5 29 3c 3e de 23 b3 be 79 bf 2d bc 10 79 f0 3d
       0.18375285 -0.34988302 -0.010604733 0.11741841
000280 9e b3 f2 3e 2b 49 b3 3d 4c e9 de be 79 4d 9c be
       0.47402662 0.0875419 -0.43537366 -0.30527857
000290 0b 8c c3 be 80 f4 64 3d 9a 3d 02 c0 53 7e 2f be
       -0.38192782 0.055897236 -2.0350099 -0.17138033
0002a0 71 16 5a be d0 ed a6 bd 9f ac 7a be 0e 49 15 bd
       -0.21297623 -0.08150828 -0.24479912 -0.036446624
0002b0 f0 af 91 3e 31 12 e8 bd 85 4b a9 3c 39 e1 ff be
       0.28454542 -0.11331595 0.020665893 -0.4997652
0002c0 03 9a 82 be 2f f7 0f bf 97 fe d8 be 65 b0 b3 be
       -0.25508127 -0.5623655 -0.42381737 -0.35095516
0002d0 61 c8 cc bd 80 15 9e be d0 8d 80 be 49 3c d6 bb
       -0.09999157 -0.30875778 -0.25108194 -0.0065379483
0002e0 b5 79 e8 bc 52 2a 93 3e bf ee 33 3d 20 0d 91 bd
       -0.028378347 0.28743225 0.043928858 -0.070825815
0002f0 6a a0 5a 3e 32 8d 65 be 13 61 89 bd 41 2d d4 bf
       0.21350256 -0.22417143 -0.067079686 -1.657631
000300 21 04 c3 3d de 51 02 3d 3d 0e c0 3e 3c fc bc be
       0.09522272 0.031816356 0.37510863 -0.3691119
000310 1b 3b 3b 3e 9c 3a cf 3e 25 b2 47 3e eb cd 85 3e
       0.18284266 0.40474403 0.1950155 0.26133665
000320 bb 93 83 be ea c4 5e 3e 07 1f f4 bd f7 3e b3 3b
       -0.25698647 0.21754804 -0.119199805 0.0054701525
000330 3a 5e b3 bd 4d 86 1b bd 12 bd 15 bc 5e 94 af 3d
       -0.08758207 -0.037969876 -0.009139316 0.08573221
000340 9a 66 a6 3d e9 60 db bd 81 dd e1 3e 7c e0 84 3e
       0.081250384 -0.107118435 0.44114307 0.25952518
000350 29 59 e5 3d eb 71 a4 3d 31 6d 96 be 47 3c 09 3c
       0.111986466 0.08029541 -0.2938018 0.008376188
000360 8f 68 74 bf 62 36 2f 3e 65 b5 b3 3a f6 c7 1d 3e
       -0.95472044 0.17110589 0.0013710676 0.1540831
000370 68 1d 0b bc bb 58 e8 3e 48 08 16 3f fe 44 b9 3d
       -0.008490898 0.45380196 0.58606386 0.09046362
000380 7b 9e 24 3e 8e e8 22 3e 6e bc 4f 3e f2 16 11 bc
       0.1607608 0.15909025 0.20286724 -0.008855568
000390 b4 23 86 3e 26 7d f1 3e 08 48 b0 bd 74 46 9d be
       0.26199114 0.47165793 -0.08607489 -0.30717814
0003a0 97 86 c9 bd 17 ee db bd 1d 94 09 3e c7 e6 1b be
       -0.09840124 -0.107387714 0.13435407 -0.15224753
0003b0 3e 04 11 be 01 6f 98 be bb 5a 91 be a8 59 d0 3b
       -0.14161775 -0.2977219 -0.28389534 0.006358344
0003c0 1c cb 9f be 4a fb f1 be b8 fb dc be 06 02 84 be
       -0.31209648 -0.4726203 -0.43160796 -0.25782794
0003d0 90 46 b1 3c 1d 06 66 be b4 26 da be b5 82 13 bf
       0.021640092 -0.2246327 -0.42607653 -0.5762132
0003e0 b4 14 cc be 8e 20 16 be d5 3b af 3d 01 ec a7 bc
       -0.39859545 -0.14660856 0.08556334 -0.020498278
0003f0 da b5 13 be 53 26 8d be 50 f5 d6 bd a0 c2 90 3d
       -0.1442484 -0.27568302 -0.104960084 0.07068372

conv1.bias f4 [6]
000000 1e 7d 40 bf 4a c9 6c be ff ec 58 bf 63 20 11 3f
       -0.75190914 -0.2312366 -0.8473663 0.56690043
000010 c5 0f f7 bd 56 64 b6 be
       -0.12063555 -0.35623425

conv2.weight f4 [16, 6, 5, 5]
000000 0d 2b fa bd c3 d3 4a be de 86 70 be 4a 48 ec bc
       -0.122152425 -0.19807343 -0.23488948 -0.028843064
000010 69 3b 14 be 11 53 e5 bd 1d a5 04 be 44 b4 86 be
       -0.14475788 -0.11197484 -0.1295361 -0.26309407
000020 a2 3d 88 be a8 b4 f8 bc 8e f5 84 be e1 3f 54 be
       -0.26609522 -0.030359581 -0.25968593 -0.20727493
000030 7c 6d d9 be 46 66 5d be 73 25 39 be 14 34 7c be
       -0.42466342 -0.21621045 -0.18080692 -0.24629241
000040 26 06 9c be 30 1c 7f bd 8c 09 86 bd f6 36 ac 3d
       -0.3047344 -0.06228274 -0.0654479 0.084089205
000050 10 90 90 be 0c d7 0d be 2f 75 56 be 38 2c 17 bd
       -0.2823491 -0.13851565 -0.2094314 -0.036907405
000060 2a ba 4e be e2 23 d4 ba e3 9c 2d 3e 29 8c bd bd
       -0.20188203 -0.001618501 0.16954379 -0.09255249
000070 7b 3a 24 be da ab 19 bd 54 cc c1 3c cc 36 9e bd
       -0.16037934 -0.037517406 0.023657002 -0.077252954
000080 d2 b2 d6 3d 2e d7 fa 3c 96 da a7 3d db 02 45 3e
       0.10483326 0.030620184 0.08195989 0.1923937
000090 d6 8f 6b bd 0a 89 31 3d 01 87 6f 3e c2 16 b4 3d
       -0.05751022 0.04334358 0.23391344 0.08793403
0000a0 1c 13 01 bd c1 19 cc bd 24 e3 b5 3d 64 6b 4d 3e
       -0.031512365 -0.0996585 0.08881214 0.20060498
0000b0 1f a0 a7 bd 02 12 f7 3c 8a b6 99 bd c2 79 ab 3d
       -0.081848375 0.030159954 -0.0750552 0.08372833
0000c0 e3 0a 62 bd 64 19 b1 be d1 6d 42 3f c7 16 c6 3e
       -0.055186164 -0.34589684 0.75948817 0.38689253
0000d0 95 fa b7 3e 31 96 2b be dd d0 93 3e 89 92 32 3f
       0.35933366 -0.16756512 0.28870288 0.69754845
0000e0 b8 02 d2 3d 23 8b 2b 3e 50 1c 82 be 4e 66 43 be
       0.10254425 0.16752295 -0.25412226 -0.19081995
0000f0 78 09 89 3e 4f d2 5f 3e 7c 6a cd bd 10 fe 21 be
       0.26765037 0.2185757 -0.10030076 -0.15819573
000100 73 ad 5d be 1f 3b 1e 3e 89 ce 3e 3e 6b df c3 3c
       -0.21648197 0.1545224 0.18633474 0.023910245
000110 1a ac a9 be 4d c9 ad be 46 29 59 3e 18 4c 4a 3d
       -0.33139116 -0.33942643 0.21207151 0.049388975
000120 b8 72 e8 bd 7c ce 5d be f4 54 ce be ad 18 ac 3d
       -0.11350006 -0.21660799 -0.4029919 0.08403144
000130 3e 29 08 3e 32 77 3f 3d b1 00 3d be 83 da ba be
       0.13296983 0.046744533 -0.18457295 -0.36494836
000140 ee 82 88 3e 77 80 78 3d 57 c1 05 be 99 6a 97 be
       0.2666239 0.06066939 -0.13062035 -0.29573515
000150 6b 6b 7f be 9b e7 94 3e 1c 5f 7e 3e 90 61 37 bd
       -0.2494332 0.2908295 0.24840969 -0.044770777
000160 bb 0f 36 be 85 7e aa be d9 65 2e 3e 41 6a 8a 3c
       -0.17779438 -0.33299652 0.1703104 0.016896369
000170 55 0f 51 be d8 f2 0b be 34 da 59 be ce fe c8 bd
       -0.20416005 -0.13666856 -0.21274644 -0.09814225
000180 c8 b1 09 be 77 68 b0 bd 9f 2e 8b be 6c 57 80 be
       -0.13446724 -0.08613675 -0.27184007 -0.25066698
000190 c1 5b 21 3e 0e e1 fe 3e 8b a5 b6 3e a9 2c 91 bd
       0.15757658 0.49781078 0.35673174 -0.070885964
0001a0 06 ee 0b 3c 4c 2c 57 3e 92 29 59 3c ee d5 90 3d
       0.008540636 0.21012992 0.01325454 0.07072054
0001b0 6b b9 b4 be ee 65 a7 be 88 79 07 bc 68 72 84 bd
       -0.35297713 -0.32694954 -0.008268721 -0.06467134
0001c0 c6 61 1e be c2 72 c0 be 15 d2 59 be ba bc 18 3e
       -0.15466985 -0.37587553 -0.21271546 0.14915743
0001d0 92 b6 0c 3e e9 18 2d bc 9d f8 91 bc 50 85 e4 bd
       0.1374152 -0.010565021 -0.017818743 -0.1115824
0001e0 c7 c3 0f bc 76 db 89 3d a4 b2 02 be cf 65 d3 3d
       -0.008774704 0.06731312 -0.12763458 0.10322153
0001f0 b1 b7 63 be 6c d1 87 3e 9b 82 fe bd 25 d4 18 bd
       -0.22238041 0.26526964 -0.12427255 -0.03731169
000200 80 25 27 be 46 78 61 3d 6a 70 f2 3c 22 1e 7e be
       -0.16322899 0.055046342 0.029594619 -0.24816182
000210 7e bf 32 be 6d 7c d8 bc a7 c6 59 bd 25 2f 64 3d
       -0.17455861 -0.026426518 -0.053167965 0.055709023
000220 9e 14 1f be 4b 65 0b bd aa 35 c9 3d fe fe 18 be
       -0.15535209 -0.034032147 0.09824689 -0.14941022
000230 f2 de 78 3e ac b0 64 bc 5b cb 0e be 45 5b a0 3d
       0.24303797 -0.0139581375 -0.13944761 0.07829908
000240 1d 34 9b bd e4 8a 4e be 75 ff fe bc af 50 da bd
       -0.07578299 -0.2017017 -0.03112767 -0.106599204
000250 44 bb 8d bd 8c b4 16 be 1f 54 00 3e 08 96 58 be
       -0.06920484 -0.1471731 0.1253209 -0.21150982
000260 7a 1b 14 be 39 f0 65 bd d7 23 71 bd d7 d4 3a bd
       -0.14463606 -0.056137297 -0.05887207 -0.045613136
000270 f3 2b 7d bd 25 b7 84 3d d8 b8 ec bc 20 9f 9e bc
       -0.06180949 0.064802445 -0.028896734 -0.019362986
000280 71 14 11 3d 38 80 17 3d 7b 30 2d be 99 f1 bf bd
       0.035419885 0.036987513 -0.16913025 -0.09372253
000290 d2 bd a5 3d da 45 e3 bb 26 0b c4 bd 42 0f a7 bd
       0.08092846 -0.006935817 -0.09572439 -0.08157207
0002a0 da ea b2 bd 52 00 e8 3d 1a d7 0d be 09 1f 00 3f
       -0.08736201 0.11328186 -0.13851586 0.50047356
0002b0 de 91 ad 3d 0c 89 de be 86 33 6d 3a ef 9c da bd
       0.084750876 -0.43463933 0.000904851 -0.10674464
0002c0 93 08 12 bd 1f 31 03 bd ec 8b fb bd fb 7c 05 be
       -0.03565271 -0.032029267 -0.12282547 -0.13035958
0002d0 13 ed 34 bd 27 b4 7c bc 3a ce 36 be 0a 2b c0 bd
       -0.044171404 -0.015423811 -0.17852107 -0.09383209
0002e0 11 c6 88 3c 76 da 2c be 62 72 02 bf ca b3 d2 3c
       0.016696008 -0.16880211 -0.50955784 0.025720496
0002f0 8f d1 22 be 36 a4 1a be 8a 3f 20 3d 43 7a 25 be
       -0.15900253 -0.15101704 0.039123096 -0.1615992
000300 2a d0 b8 be db 4b 96 be 4f 83 ec 3c bd 55 35 be
       -0.36096317 -0.29354748 0.028871207 -0.17708488
000310 37 a2 c6 3c 1a 43 a9 be d4 9a f8 bd c1 1a 02 be
       0.024247272 -0.33059007 -0.12138906 -0.12705518
000320 67 cc aa 3d 18 67 78 3d 39 37 62 be bd 2c 01 3d
       0.08339768 0.060645193 -0.22091378 0.031536806
000330 12 2f 2f 3e 77 69 5c bd 6f 3b 40 be 7c 1c f7 bd
       0.171078 -0.053811517 -0.18772672 -0.1206598
000340 a0 5d cc 3c be 7d 5d be 6c 01 98 bd d5 89 83 be
       0.024946988 -0.21629998 -0.07422146 -0.25691095
000350 47 61 11 bc 26 66 54 be 86 58 9b be 5e 02 a1 3d
       -0.00887329 -0.20742092 -0.30340976 0.0786178
000360 1c e6 93 be b6 f5 b8 be af 99 2e 3d 03 70 33 be
       -0.28886497 -0.36124963 0.042627033 -0.17523198
000370 0e aa 8d 3e 2c 07 ab 3d eb 26 3f 3c 07 64 8e be
       0.27668804 0.08350977 0.011666994 -0.2781069
000380 4a e9 c4 be 39 a7 ab be 5f 7b 6f be 6d bb 4e be
       -0.38459235 -0.33526018 -0.23386906 -0.20188685
000390 bf c0 71 bd 59 fa 95 3d cc ad 7d be ba 82 9c be
       -0.059021708 0.07323141 -0.2477333 -0.30568486
0003a0 4b 81 6b be 2d 37 c4 bd 46 ed 45 3d c3 2c 85 be
       -0.2299854 -0.095808364 0.048321985 -0.26010713
0003b0 dc 25 2d be 02 d3 ea bd 48 97 06 be 18 b9 36 bd
       -0.16908973 -0.11466028 -0.13143647 -0.044610113
0003c0 d5 af 4a be 0e 22 84 be ef 44 4c be 30 0d be bd
       -0.19793637 -0.25807232 -0.19948171 -0.09279859
0003d0 56 bc 92 bd e3 4e 3c be 1e a1 49 be c3 1a a0 be
       -0.071648285 -0.18389468 -0.19690368 -0.31270418
0003e0 8b 54 60 be 68 53 26 be 86 2d 0f 3e 9e 2f ef 3d
       -0.2190725 -0.16242754 0.1398221 0.11679004
0003f0 98 e5 26 bd 42 68 37 bd 02 23 7b 3c 2c f8 a5 bd
       -0.0407463 -0.044777162 0.015328171 -0.08103976

conv2.bias f4 [16]
000000 85 50 a4 3f ae 94 99 3f 9a 0e f2 bc 11 61 2b 3f
       1.2837073 1.1998498 -0.029547978 0.66944987
000010 3b ad de 3d 66 90 54 be 18 ec 87 bf a9 1f 56 3d
       0.10872885 -0.20758209 -1.0618925 0.052276287
000020 4d bd 3d 3f ea b4 ca 3f 28 f2 69 3e 4a 0e 53 bf
       0.74116975 1.583646 0.22846282 -0.8244368
000030 5c 4a d2 bf f2 2c 0a 3c bb ae 6a 3e a1 db 4c bf
       -1.6428943 0.008433567 0.22918217 -0.8002263

fc1.weight f4 [120, 400]
000000 cb 5b 98 bc 11 4d df 3c e6 55 10 bc 93 69 5f bd
       -0.018598458 0.027258428 -0.008809542 -0.054544043
000010 a8 dd 4a bd af ea 8f 3d 3e 29 62 bc cf 89 97 bc
       -0.049527794 0.07027184 -0.013803778 -0.01849833
000020 88 25 9b bd 33 19 94 bc 84 81 d1 bc 9c 07 8f 3c
       -0.07575518 -0.018078422 -0.025574453 0.017459683
000030 3b 59 9b bd 85 12 41 bd a9 62 95 b9 a7 5e b4 3b
       -0.07585379 -0.047136802 -0.00028493002 0.0055044475
000040 ad e3 aa 3d 10 a5 d2 3d e1 38 5f 3e f3 0d 1b 3e
       0.08344207 0.102853894 0.21799041 0.1514204
000050 89 1a ca 3d 78 7d 80 3b 06 49 a2 3d 55 44 97 3d
       0.098683424 0.003921207 0.07924084 0.0738608
000060 be ea e0 3d 47 ca 02 be 28 5a 54 bd c4 42 52 bc
       0.109822735 -0.12772475 -0.051843792 -0.012833301
000070 1c 55 71 bc 09 c3 40 3d 90 cc 63 bd 0a f3 79 bd
       -0.014729764 0.047061 -0.055615008 -0.061022796
000080 a9 85 9f bd f2 95 95 bc 5e db e2 3c 3d f6 84 bc
       -0.077891655 -0.018259976 0.027692493 -0.016230697
000090 6d 37 95 bd 54 fb cb bc e4 b7 9f bc 0e c7 1a bc
       -0.07285962 -0.024900116 -0.019496866 -0.009446872
0000a0 4a e6 97 bd 3e 90 35 bd b5 fb 8b bd 26 ad 13 bd
       -0.07416971 -0.044327013 -0.06835119 -0.0360538
0000b0 2a 16 55 3b 2d 81 7e bb 86 39 0e be 5b b9 6a bd
       0.0032514432 -0.003883432 -0.13889131 -0.057305675
0000c0 2e e1 dc bc a3 09 94 bd 9c 25 3a bc d8 89 56 bc
       -0.026962843 -0.072284006 -0.011361506 -0.013094388
0000d0 b1 49 bf bd 49 14 19 bd c1 f3 32 ba 22 0b b9 3d
       -0.093402274 -0.03737286 -0.00068264833 0.090353265
0000e0 0a c0 e3 3b 21 13 39 be 8b 8f a0 bd f1 48 a2 bd
       0.006950383 -0.18073703 -0.07839879 -0.07924069
0000f0 43 39 da 3d d8 b9 83 bd f3 bb 17 be a9 b6 87 bd
       0.10655453 -0.06431931 -0.1481779 -0.066266365
000100 a1 06 35 3d 16 35 4f 3d 17 ad f2 3c 79 90 06 3d
       0.044195775 0.050587736 0.029623551 0.032852624
000110 4a 26 30 3e b0 c3 5e 3c 1f b5 d6 3d 0d d1 00 3e
       0.17202106 0.01359646 0.10483765 0.12579747
000120 65 f5 9f 3d 2b db 35 3d 5d 64 ed 3c 5a b3 d7 3c
       0.07810477 0.044398468 0.028978521 0.026330639
000130 ca 81 94 bc f6 08 94 3d e2 f1 29 3c c9 ab d0 3d
       -0.018128294 0.07228272 0.010372611 0.101890154
000140 91 e3 a6 3c 00 19 15 bd df 52 d1 bd 68 81 50 bd
       0.020372184 -0.036400795 -0.102208845 -0.05090466
000150 e0 b4 2e bd e6 42 f0 bd 5e 29 f6 bd 04 b1 00 ba
       -0.042652965 -0.1173151 -0.12019609 -0.000490919
000160 f0 f8 85 bd c1 f9 c8 3d 79 00 88 bd ac 62 82 bd
       -0.06541622 0.09813262 -0.06640715 -0.063664764
000170 e9 76 97 bd d2 e1 84 bd 6b cc 3a 3d ba f4 f3 3d
       -0.07395727 -0.06488384 0.045605104 0.11911912
000180 8f 7c 76 bd d0 0a a5 bd 15 ec 1e bd 68 0e cc 3d
       -0.060177382 -0.08058703 -0.038799364 0.09963685
000190 74 cb df bd ba e2 14 bd 9c 11 f6 bd 7d 2e 1d be
       -0.109274775 -0.036349036 -0.120150775 -0.15349765
0001a0 70 44 5e bd 5f 16 b3 3c ad c6 ef bd cb 73 79 bd
       -0.054264486 0.021861253 -0.11707816 -0.060901444
0001b0 f9 f4 ec bc 38 ee b1 bd dc a7 1f be 82 c5 78 bd
       -0.028925406 -0.08688015 -0.15591377 -0.060735233
0001c0 ee 48 54 bd a3 eb 37 bd c1 5d 58 bd ce 0a 9b bd
       -0.051827364 -0.044902455 -0.052823786 -0.0757042
0001d0 32 ab 97 bd 0a dd d8 bd 36 40 e8 3c 2b 85 47 3e
       -0.074057 -0.10589035 0.02835093 0.19484393
0001e0 7d eb 30 be 1c 55 69 be 8e 38 37 be a9 2c ca 3d
       -0.17277332 -0.22786373 -0.17892668 0.098717995
0001f0 2a f1 18 3e e2 b0 34 be c0 7c ee bd 56 87 ea bd
       0.14935747 -0.176456 -0.11644888 -0.114515945
000200 4c 6a 7e 3b 6d 49 99 bd e7 62 4c bd 92 b4 85 bd
       0.0038820682 -0.07484708 -0.049899008 -0.06528582
000210 bc b9 16 be 08 2d 98 3d 37 83 73 3c 4f 5b 91 bc
       -0.1471929 0.07430464 0.014862827 -0.017743735
000220 3d af ca b9 3d 2e 24 bb ac a6 25 bc 1a b5 34 3d
       -0.00038659005 -0.0025051974 -0.010110538 0.044118024
000230 e4 65 fc 3c a1 18 81 bc ff 6c f8 bc fa 6d fa bd
       0.030810304 -0.015758814 -0.03032541 -0.122280076
000240 ff c3 36 3e 9e d0 08 be df 8a 15 be 7a 44 d7 bd
       0.17848204 -0.13360831 -0.14603756 -0.10511108
000250 a7 33 76 3d 66 a8 1a 3e 59 85 49 bd 24 0d 7b bd
       0.060107853 0.15103301 -0.049199436 -0.06129183
000260 4a 2c a0 3d 5b c9 c9 3d 37 f8 a5 bc 29 bd ba bd
       0.078209475 0.09852859 -0.02025996 -0.09118111
000270 d2 cd ab bd 62 28 87 bd 9e b3 1b 3e 22 f1 38 3e
       -0.083888665 -0.06599499 0.15205237 0.18060735
000280 56 9b fd 3d 60 4d 3e 3d d1 85 12 3e cd 5d e1 3d
       0.123831436 0.04646051 0.1430886 0.11004219
000290 c4 e8 a0 3e 08 72 1b 3d 90 af ce bd 86 d1 17 3d
       0.31427586 0.037950546 -0.1009208 0.03706505
0002a0 5a b1 84 3d 12 1a a9 3c 51 db 86 3d 89 f9 27 bd
       0.064791396 0.020642314 0.065848 -0.04100946
0002b0 93 b8 82 3d 08 4a 64 3a 46 b8 9c bd f5 d3 d7 3c
       0.06382861 0.0008708541 -0.07652335 0.026346186
0002c0 fd 97 19 3d fd 25 52 3d ef 5c d3 bd 5d cb 99 bc
       0.037498463 0.05130576 -0.1032046 -0.018773729
0002d0 6c 26 69 3c cb 68 eb 3c 6f 74 62 3d 59 0e 84 bc
       0.014230352 0.028736493 0.05528682 -0.016120123
0002e0 6e d4 da bc e9 05 c4 bb 4b d6 27 bd 15 c0 80 3c
       -0.026712622 -0.00598215 -0.04097585 0.015716592
0002f0 d8 15 82 3c 50 0f 30 3d 8a 6a b0 bc 85 f5 d4 3c
       0.015879557 0.042983353 -0.021535177 0.02599598
000300 3b 5f 15 bd 77 d3 93 3d 91 5f c4 3d 53 5d 36 bd
       -0.036467772 0.07218068 0.0958854 -0.044522595
000310 25 71 be bc 3a ce 5f 3d 16 d3 ba 3d 65 70 ec 3d
       -0.02324731 0.054640032 0.09122293 0.11544875
000320 e0 a9 a9 3d 46 4e 22 bd 13 ec 84 3d 3b 90 d6 3d
       0.08284354 -0.03962543 0.0649034 0.104767285
000330 e5 8c 90 3d 39 be 9a bd 6f 72 c9 3b 64 7f f6 bd
       0.070581235 -0.07555813 0.0061476748 -0.120360166
000340 95 4c 94 3d c6 69 a2 bb 34 73 4f bc e8 5e 55 3c
       0.07241169 -0.004956457 -0.012661744 0.013023116
000350 06 1e 56 bd 1f bb 89 bc 7d 73 8d 3d dd 73 17 be
       -0.052274726 -0.01681286 0.06906793 -0.14790292
000360 53 84 52 bd 9c 30 88 bc e6 28 7c 3d a7 fd d6 3d
       -0.051395725 -0.016624741 0.06156244 0.10497599
000370 61 bd 18 bd c2 d7 91 3d 2c e4 10 bc 1d 72 f5 3c
       -0.03728998 0.07121231 -0.008843463 0.02996164
000380 35 22 7e bc 72 07 06 3c 96 15 16 3d b9 50 7c 3d
       -0.015511085 0.008180486 0.03664168 0.06160042
000390 0c df 90 3d 76 15 a7 ba 38 73 6d 3d 14 c8 a1 3c
       0.07073793 -0.0012747485 0.05797121 0.019748725
0003a0 b2 b6 4c 3e 89 23 39 3e a1 a1 98 3d a7 84 bb 3d
       0.19991568 0.18079962 0.07452703 0.09156161
0003b0 ce 44 fc bc fe f2 80 bb b6 61 96 3d dd eb 0c 3c
       -0.030794527 -0.003935217 0.07342856 0.008601156
0003c0 fa 9e 95 3d 36 b3 46 3c 97 b9 3b bd c7 d4 a4 3b
       0.07305713 0.012127688 -0.04583129 0.005030248
0003d0 e6 23 fa 3c 35 9b 0f 3d 45 e1 e2 bd 99 3a 62 bd
       0.030534696 0.035060126 -0.11078123 -0.055231664
0003e0 09 6f 7e bc b4 f8 4d 3d 88 70 c1 3c a6 78 19 bd
       -0.0155294025 0.05028601 0.02361323 -0.037468575
0003f0 fd bf 2d bd 83 8e b2 3d ec e9 1c 3e c8 19 1f 3e
       -0.042419422 0.08718588 0.15323609 0.15537179

fc1.bias f4 [120]
000000 fe fa 82 3d c0 31 60 3d e7 5e 10 3e c1 f0 be 3d
       0.06395529 0.054734945 0.14098702 0.09323264
000010 1b 05 e2 3d f3 3e 0c be 99 4e 3f 3e 4d 0a 81 be
       0.1103613 -0.13695888 0.18682326 -0.2520317
000020 f5 0b 7a 3e 8b 26 49 3d 7e 0b 33 bd e4 9f a2 3d
       0.24418624 0.049109023 -0.04371213 0.07940653
000030 0e 7b cc 3e e9 5c 87 3e 6d f0 6f bd a7 97 22 bd
       0.39937633 0.26438072 -0.058578897 -0.03969541
000040 90 6e 34 bd 60 d9 46 bc a3 ca 72 be a6 95 3d 3e
       -0.044050753 -0.012136787 -0.23710112 0.18514118
000050 1a 49 1b bd 71 1c 86 be 53 96 c6 3d 7a 3e 22 3e
       -0.037911512 -0.26193574 0.09696641 0.15844145
000060 db dc 81 ba 89 b3 36 3e 38 52 00 3e b4 49 63 bd
       -0.0009907739 0.17841925 0.12531364 -0.05549021
000070 69 2c ba bd 58 91 7c 3d 1c 8b 99 bd e0 2c 59 3e
       -0.09090502 0.061662048 -0.07497236 0.21208525
000080 c5 49 f2 3d ec 60 1b 3d 3f 03 d5 bd 68 04 6f 3e
       0.11830477 0.03793423 -0.1040101 0.23341525
000090 55 69 99 3d f7 86 98 3e 6e c1 91 be f8 1b 20 bd
       0.074907936 0.2979047 -0.28467888 -0.039089173
0000a0 1a 10 1c bd 44 a6 9b 3e 52 72 97 3d ca a9 b8 bd
       -0.038101293 0.30400288 0.07394852 -0.0901676
0000b0 cb 05 cf 3b d3 b8 24 be 7d 07 5f 3d b9 94 4b be
       0.0063178292 -0.1608613 0.0544505 -0.19880952
0000c0 06 54 2c 3d c0 2b 02 3e 35 3a 83 3d 15 21 ce 3c
       0.04207232 0.12712002 0.064075865 0.02516226
0000d0 c5 8f f7 bd b4 5d bd bd d8 2d 87 3c 51 97 57 be
       -0.12087969 -0.09246388 0.016501352 -0.21053816
0000e0 fc 9b 8d bd 33 e6 0b be 30 6e 0f bd 84 dd a3 3c
       -0.06914517 -0.13662033 -0.035017192 0.020003088
0000f0 8a 65 b0 bd cb 88 83 bd 66 56 9b 3e 12 16 8b 3e
       -0.08613117 -0.064225756 0.30339354 0.27165276
000100 a6 c9 68 be 4b bb cd bd 8a 02 80 bd 20 62 9c bd
       -0.22733173 -0.10045489 -0.06250484 -0.07635903
000110 68 97 28 bd e8 03 8f bd a0 5f dc bc 6f e5 7a bd
       -0.041160017 -0.06983167 -0.026901066 -0.06125396
000120 5e 01 87 bd 81 98 85 bd 3b 82 99 3d bf 27 6b be
       -0.06592058 -0.065232284 0.074955426 -0.2296438
000130 59 b3 b8 3e e5 c0 08 bd 2e 89 30 3e 2e d8 00 3c
       0.3607433 -0.033387084 0.1723983 0.007864041
000140 d2 22 a0 bd 27 af 5c 3e fe 74 fc bd ae 58 8f 3e
       -0.078191414 0.2155119 -0.12327002 0.27997345
000150 48 f0 32 3e 5e 36 20 3e 3f a9 03 3d 4d 5b 11 bd
       0.17474473 0.1564574 0.032143828 -0.03548746
000160 62 d8 9a 3c 8d 7b c0 bc a9 c5 52 3e f9 02 78 bd
       0.018902007 -0.023496414 0.20583214 -0.06054971
000170 d9 5d 9e 3e c7 49 be bc f3 c9 6f be b3 21 82 bd
       0.30930975 -0.02322854 -0.23416881 -0.06354084
000180 ef 92 ba 3c 0b 14 e5 3d e7 19 5e 3e 79 15 c5 bd
       0.022775142 0.111854635 0.21689568 -0.09623236
000190 b6 47 67 3c 72 3e a0 3b fb 4e 5b bd e0 f0 7a 3e
       0.014116218 0.0048902566 -0.05354212 0.24505949
0001a0 bf 6d e0 bd 34 1a 43 be ae 0c 0e 3f 3e b3 3e be
       -0.109584324 -0.19052964 0.554881 -0.18623063
0001b0 cb 1b 16 3c a9 13 ba be ad cd 27 bd 9a a0 a8 3e
       0.0091619 -0.36343125 -0.040967632 0.3293503
0001c0 00 39 e5 be a0 5a b7 3e c6 2b 3f 3d d1 d4 03 be
       -0.4477005 0.3581133 0.046672605 -0.12874152
0001d0 36 e4 d5 3c 6a c9 bd bd 87 ea a4 3d 91 66 9d bc
       0.026109796 -0.09266932 0.08052545 -0.019213947

fc2.weight f4 [84, 120]
000000 19 1c 62 3e f1 68 c5 bd 48 aa c6 bc 5b cc ce 3d
       0.22081031 -0.096391566 -0.024251118 0.100975715
000010 7b ad 04 be e5 a6 82 be 87 9c 9e bc 26 46 5a be
       -0.12956803 -0.25517955 -0.019361747 -0.21315822
000020 29 f6 c4 3d f7 bf 26 3e 4e 78 d1 bd 26 f5 50 be
       0.09617264 0.16284166 -0.102280244 -0.20406017
000030 8f e1 1d bd 2a d1 de bd 40 bb a1 3c 06 f0 e6 bd
       -0.038545188 -0.10879739 0.019742608 -0.112762496
000040 13 67 c6 3d 5b 50 96 bd 9f 7e c0 3d 0b eb c1 3d
       0.096876286 -0.07339545 0.09399151 0.09468659
000050 92 90 7b be ea 27 a8 3d 6b 7e 16 3e 8e 46 8b bd
       -0.24566868 0.08210738 0.14696662 -0.068005666
000060 3c 90 f1 bd d9 2f 1b be 30 fe 11 bd 7a 19 f2 3d
       -0.11795089 -0.15154971 -0.035642803 0.118212655
000070 07 7c 0a be 17 5f d2 bc 28 e2 81 3d 54 d2 56 bd
       -0.13523875 -0.025680108 0.06341964 -0.05244668
000080 27 e5 8c bd f9 e2 03 3e 68 50 10 bd 4e 22 d3 bc
       -0.06879645 0.12879552 -0.03523293 -0.025773194
000090 4c 43 33 be 6b e5 25 be 8b c1 83 bb 27 41 a9 bd
       -0.1750614 -0.16200797 -0.004020875 -0.0826438
0000a0 86 18 29 be d4 db 54 3e 9a 94 df 3d 7f 11 f9 bd
       -0.16513261 0.20786983 0.109170154 -0.1216154
0000b0 ea b9 e3 bd b1 e2 2e 3d e7 90 3f 3d 24 78 36 be
       -0.11119445 0.04269666 0.04676905 -0.17819268
0000c0 05 02 80 bc 5f 9d c8 3c 6a d7 b7 bc 57 c7 41 3e
       -0.015625963 0.024489103 -0.022441585 0.18923698
0000d0 0a ac 2c bc fe e3 ad bd 0d d6 35 3d e4 8a 9e bd
       -0.010539064 -0.08490752 0.044393588 -0.07741335
0000e0 3f 3a a4 bd 6e a2 99 3d 24 41 46 be af 65 8a be
       -0.08018922 0.07501684 -0.19360787 -0.27030703
0000f0 d7 e8 79 3d f6 d8 27 3e fb f3 07 be 6f 0a 3c bd
       0.06101307 0.16391358 -0.13276665 -0.045908388
000100 b5 e3 d0 b9 6f 53 24 be 57 3e 35 3a 9c 72 bf 3d
       -0.00039842507 -0.16047452 0.00069138914 0.09348032
000110 5d 05 65 bc d1 5b 8c 3c 77 7d 31 be 5d 63 f7 bc
       -0.0139783295 0.017133625 -0.17333017 -0.030198747
000120 2d c7 9c bb 5b 16 2a be 90 c6 33 bd 10 73 ca 3d
       -0.004784486 -0.1661009 -0.043890536 0.09885228
000130 54 27 fd 3d b6 15 2a be cd 39 4c 3c d4 b0 fd bd
       0.12361017 -0.16609845 0.012464953 -0.12387243
000140 35 bd 13 3c f3 75 08 3e c1 be 3d be 65 c9 8c bd
       0.009017278 0.13326244 -0.18529798 -0.068743505
000150 35 78 a5 bd ea db 37 be 19 e1 ce bd e8 ac c9 bc
       -0.08079568 -0.17954984 -0.10101528 -0.024618581
000160 93 e0 56 3e f8 de ae 3d 21 c5 04 bd 9e ef 1c 3d
       0.20984106 0.08538622 -0.03241456 0.038314454
000170 d0 f2 17 3c 32 59 0b be 17 9b 2e bd 4a 0d f0 bd
       0.0092742 -0.13608244 -0.042628374 -0.11721285
000180 d9 9e 3c be e5 34 14 3e d2 05 20 3e 93 a3 9a bd
       -0.1841997 0.14473303 0.1562722 -0.075507306
000190 66 ab e3 3d 96 42 8a bb bb 8d 17 be 02 93 3f 3d
       0.11116676 -0.0042193634 -0.1480016 0.046771057
0001a0 e9 61 85 bd d4 29 1f bd 50 79 06 3e a9 d1 5b bd
       -0.065128155 -0.03885825 0.13132215 -0.053666744
0001b0 ed ed 4b be 72 79 e3 3c 55 c8 4b bd 46 c0 1d 3e
       -0.1991498 0.02776787 -0.0497516 0.15405378
0001c0 23 0d 07 be 5a ff 04 3e ce 89 4e 3e 84 d3 30 bc
       -0.13188605 0.12988034 0.20169756 -0.010792617
0001d0 3b 1a 2e be 56 7f b4 3d 82 ea 0d be a2 96 78 39
       -0.17002194 0.0881335 -0.13858989 0.00023707238
0001e0 32 64 b8 bc f8 8e aa bc d6 8f 84 bd 75 aa 53 bd
       -0.022508714 -0.020820126 -0.06472747 -0.051676232
0001f0 2f e0 d6 3c 8b 03 1e 3e 79 a2 3e bb 33 78 5b bd
       0.026229946 0.15431039 -0.002908854 -0.053581428
000200 f0 62 00 bd 74 32 7e 3d e9 4b d2 bd 1f af 17 3d
       -0.031344354 0.062059835 -0.10268385 0.037032243
000210 da 1f 02 bd 10 d7 b6 bd d5 6f 95 3d 9f d6 64 3c
       -0.031768657 -0.08927739 0.07296721 0.013967185
000220 6f ea 3b bd 95 cc 6b bd 61 45 0e bc 60 18 e8 bd
       -0.04587787 -0.05756815 -0.008683533 -0.11332774
000230 46 6e fe bd 43 de 72 be 98 a9 a8 3d 69 72 0e 3d
       -0.12423377 -0.23717599 0.082354724 0.03477708
000240 14 ba 97 3d 1d 36 c3 3c 77 0c 85 bd 02 35 af bd
       0.074085385 0.023829514 -0.06496518 -0.08555032
000250 e4 9f 8d 3d 49 be 1e 3d 61 f6 64 ba 22 77 53 bc
       0.06915262 0.03875569 -0.0008734223 -0.012906821
000260 98 d2 7e be 5f 85 d8 3c a0 d8 de ba 51 db 2b 3d
       -0.24885023 0.026430784 -0.0017001815 0.041957203
000270 31 42 26 3d 2d 58 aa 3d aa d2 0b 3d e6 7d 42 bd
       0.04059047 0.083175994 0.03413645 -0.047483347
000280 4b bc a5 bb 7f c5 7d bd 58 28 13 be 83 dc ad 3d
       -0.0050578467 -0.061955925 -0.14370859 0.08489325
000290 d3 4e 43 3d e8 03 57 bd c9 45 a9 bb c6 c3 1f 3e
       0.047682595 -0.05249396 -0.0051657897 0.15602025
0002a0 e5 cb ea 3b 4a ac 15 bd 4d db 30 bd 7e 53 b0 3d
       0.0071654194 -0.03654126 -0.04317789 0.08609675
0002b0 8b ea 48 be 56 6d 27 3e 2c 62 ea bd 1e 63 8b bd
       -0.19620721 0.16350302 -0.11444506 -0.068060145
0002c0 74 98 12 bd bc 6b 16 be d2 0a 0f 3e e4 3f 85 bd
       -0.035789922 -0.14689535 0.13968971 -0.06506327
0002d0 05 ed 5a bd 25 20 3f be fa dd 02 3e 7d fd 98 3d
       -0.053448696 -0.18664606 0.1277999 0.07470224
0002e0 8c a2 30 bd 4f 18 bc bd 51 4c 28 3b c3 0d 36 be
       -0.043123767 -0.09184324 0.0025680254 -0.17778687
0002f0 7b 02 76 bd c9 4b 15 be 91 e8 f9 3d d9 c8 3e be
       -0.06006096 -0.14579691 0.12202562 -0.18631305
000300 fd e0 d2 3d 39 52 86 bd 2e 9c f8 3d cb 95 91 bd
       0.10296819 -0.065586515 0.12139164 -0.07108649
000310 24 89 12 be 6c d3 f5 3d 41 0a 1c 3d b4 f1 f5 3d
       -0.14310127 0.12003216 0.038095716 0.12008992
000320 53 f4 3a 3d 7c 24 3b be 34 5a 3b bd a6 6b b2 bd
       0.045643162 -0.18275636 -0.04574032 -0.087119386
000330 93 c0 0c be 72 d6 23 bc 18 a7 2b 3d c3 ee 86 bd
       -0.13745336 -0.009999858 0.0419074 -0.06588509
000340 16 af e4 bd 73 2c 93 3d f9 55 43 3d ba e5 29 3d
       -0.111662075 0.071862124 0.04768941 0.04147885
000350 15 05 df bd a6 84 84 bb ac f9 2d 3e 88 89 92 be
       -0.10889641 -0.0040441332 0.16989774 -0.28620553
000360 68 a9 66 3e 77 c8 8f bd d5 96 60 be 07 96 0d 3e
       0.22525561 -0.070206575 -0.21932538 0.13826762
000370 85 55 01 be 66 a8 f9 bd 3c 0b 30 3d fe 83 b1 3d
       -0.1263028 -0.121903226 0.042979464 0.08667754
000380 8c 9d 32 be ce d2 fa 3c 77 9b 96 be 59 4e bb bd
       -0.17442912 0.030618098 -0.29415485 -0.09145803
000390 33 52 b5 3d 38 6b 16 bd 63 e3 5f 3e 9c 66 1d 3e
       0.08853569 -0.036723346 0.21864085 0.15371174
0003a0 63 65 7c bd ee 37 26 be 5c 45 49 3b 8d 6d 85 3c
       -0.061620127 -0.16232273 0.0030711507 0.01628759
0003b0 95 d1 62 3d 20 35 d0 3c 14 b4 41 bc aa 16 0b 3c
       0.055375654 0.025415957 -0.011822719 0.00848929
0003c0 70 16 e7 bd 4d 71 38 3c 46 37 68 be 90 fc 51 bd
       -0.112835765 0.011257482 -0.22677335 -0.051266253
0003d0 75 45 3b be 53 01 3d bc 07 1c 74 bd af e1 08 ba
       -0.18288215 -0.01153596 -0.05959704 -0.0005221618
0003e0 c8 43 98 bd ef 11 0f 3c 7e 66 1e be 64 b6 6d bd
       -0.07434803 0.008732303 -0.15468785 -0.05803527
0003f0 46 39 be bd cd 1e 12 bd 81 aa db bd 5f 2f a0 bd
       -0.09288268 -0.035673905 -0.107258804 -0.07821535

fc2.bias f4 [84]
000000 bf 13 28 3f cb b0 02 3e c6 3f 42 3e 01 96 1a 3e
       0.6565513 0.12762754 0.1896964 0.15096284
000010 7a 80 4f 3f d2 c1 c1 bd fe 96 f8 3e a7 b6 1c 3f
       0.81055415 -0.094607964 0.48552698 0.61216205
000020 67 b1 1b 3e 89 51 f3 3e cc 06 90 3d 4b c0 ce bd
       0.15204392 0.47523144 0.070325464 -0.10095271
000030 86 3e f8 3e e5 ea 1f 3f 0a e0 56 3e cc 47 69 3d
       0.48485202 0.62467796 0.20983902 0.056953236
000040 8f e0 b1 3e da 0c c0 3e 85 c5 65 3f 82 1a 69 be
       0.34741637 0.37509805 0.89754516 -0.22764018
000050 68 59 ec bd 4f 40 58 3d 97 3a 56 3c c1 f5 6c bd
       -0.115404904 0.052795704 0.013075492 -0.057851557
000060 c1 f6 6a 3e 92 df ff be 3f f0 9e bd ff f3 5b 3e
       0.22945692 -0.49975258 -0.07760667 0.21479796
000070 b8 3d 87 3e 49 e3 78 bd 1a c9 02 3e 07 fe 86 bd
       0.26414275 -0.06076363 0.12772027 -0.065914206
000080 8f c0 ac 3e 4b fb e8 3e 36 aa 2e be 31 a8 d0 bd
       0.3374066 0.4550422 -0.17057118 -0.1018833
000090 5a 49 d2 3e 2c dd 58 3b 0c a2 4a 3e be 90 17 ba
       0.41071588 0.0033090813 0.19788378 -0.0005781761
0000a0 e9 5d a5 3d ab 96 fa 3e 59 09 fa bd 52 55 38 3d
       0.080745526 0.48943076 -0.12208814 0.045003243
0000b0 d3 93 5e bd f0 25 f2 bc 40 c6 74 be 0c 9e 9a 3e
       -0.054340195 -0.029559106 -0.23903751 0.30198705
0000c0 62 17 56 be ff ad 55 be 81 8e 8f 3c b4 4d 22 3e
       -0.20907357 -0.20867155 0.017524006 0.15849954
0000d0 63 52 1b 3f 96 ef 9e 3e 3c 4f d3 bd 37 32 34 3b
       0.6067259 0.31042165 -0.10317847 0.002749575
0000e0 26 00 ce 3e be c1 5b 3e ad 2b 1e 3c 06 59 b8 bc
       0.40234488 0.21460626 0.009653968 -0.022503387
0000f0 c5 65 9d bd a8 3b 1d 3d ae ba cd 3c d2 3e a9 bc
       -0.076854266 0.03838697 0.02511343 -0.020659838
000100 79 2a 43 3e 60 aa 49 3e ac 42 9e 3c a7 57 2b 3e
       0.19059171 0.19693899 0.019318901 0.16732655
000110 2b 95 8a bd 53 02 dc 3e 65 96 bd 3c 26 3f 7b 3e
       -0.06766733 0.42970523 0.023143003 0.24535808
000120 3a 6e c5 3e 4d c4 1a 3f 64 8f 73 3c be 56 46 3e
       0.3856066 0.6045578 0.01486573 0.19369027
000130 5b a8 0a 3b 9c dc eb 3e f8 1b b0 3e 10 c1 39 3e
       0.0021157477 0.4606675 0.34396338 0.18140054
000140 1c c9 fe bc f7 a3 57 3d 84 51 01 3f 1e d4 59 be
       -0.031101756 0.052646603 0.5051501 -0.21272323

fc3.weight f4 [10, 84]
000000 ba 8e 7a 3d 18 e7 8f bc 0b 6e dc bb a8 4f a6 3d
       0.06117127 -0.017566249 -0.0067269853 0.08120662
000010 2f 01 3d bd e0 1a 5b 3e 5e 1b 8c 3e 37 65 62 be
       -0.046143707 0.21396971 0.2736463 -0.22108923
000020 1c 0f 92 3e a1 b9 26 bd 8b 45 50 be c7 b1 b4 bd
       0.28527153 -0.040704373 -0.20339029 -0.08822971
000030 65 65 3a 3b 10 d1 e9 bd 94 69 38 be 57 26 32 be
       0.0028441784 -0.11416829 -0.18009025 -0.17397438
000040 ce d7 21 be 5f 24 ec bc 8e b4 3b 3e 36 14 5f 3e
       -0.15804979 -0.028825937 0.18330595 0.21785054
000050 c6 cf 5d 3e 97 50 d5 3c d7 ad 1e 3e d9 ac 02 be
       0.2166129 0.026039405 0.15496002 -0.12761249
000060 7c 5e dd bd bc 35 cc 3c d3 59 05 3c ec 83 c8 3c
       -0.10809037 0.024927966 0.008139092 0.024476968
000070 80 65 f7 bd 74 36 23 3e 7f fb 52 bd 8b 69 97 3d
       -0.120799065 0.15938741 -0.051509377 0.073931776
000080 df 60 26 3e c6 fc 7b 3d 13 be 8e 3e da 2d da bd
       0.16247891 0.06152036 0.2787939 -0.10653277
000090 41 97 bc 3d 67 f1 cd bd 08 85 52 bd 47 99 51 3d
       0.09208537 -0.100558095 -0.0513964 0.051171567
0000a0 96 99 68 be 96 39 70 be 24 8c d3 3d 0b 4e 8d 3e
       -0.22714838 -0.23459467 0.10329464 0.27598605
0000b0 7a b3 b7 3d a1 13 e5 3d 33 e7 95 3d df 01 d1 bd
       0.08969779 0.111853845 0.073194884 -0.10205435
0000c0 f1 e6 3c 3e 38 68 44 3e fb 8f b5 bd ad 5f 6b 3e
       0.18447472 0.19180381 -0.08865353 0.22985716
0000d0 46 72 ad bd 5c a8 07 be f4 5a 73 3e 89 e0 7b 3d
       -0.084690616 -0.13247818 0.23765165 0.06149343
0000e0 64 af 19 be 70 96 aa 3d 96 45 53 bd dd 2d 4c bd
       -0.15008312 0.08329475 -0.051580034 -0.049848426
0000f0 e2 2d 76 3d b3 c2 54 bd 9e a6 9f 3d 16 32 8c bd
       0.06010235 -0.051943492 0.077954516 -0.06845491
000100 5e 60 c2 bd 36 f2 1a 3e a9 43 fc bd 31 0f 38 3e
       -0.09491037 0.15131459 -0.12317593 0.17974545
000110 8c 6b 32 be aa 11 5e 3e 01 b0 8d 3d 73 8d a1 3d
       -0.17423838 0.21686426 0.06918336 0.078883074
000120 0e 2f 02 3e 00 20 80 3e 6a 5b 2f 3e 5d c7 dd bd
       0.12713262 0.25024414 0.17124715 -0.10829041
000130 8d 73 8f 3e 09 4e 00 3e 2d 93 3f 3e 1a be 0f 3e
       0.28017846 0.12529768 0.18708487 0.14037362
000140 c6 f7 24 bd c0 bb 30 3d a4 9f b8 be 5f 8c 2b be
       -0.040275358 0.043147802 -0.36059296 -0.16752766
000150 5c d5 1a be 6e 72 c6 3d e5 e2 92 bd 18 16 1f 3d
       -0.15120453 0.096897945 -0.07172183 0.03883943
000160 74 66 ad be 0d 62 8e 3e 83 ee 2c 3e 27 b2 48 bc
       -0.33867228 0.27809182 0.1688786 -0.012249506
000170 f4 57 14 3e 2b 16 e0 3d 11 4c 94 be 49 9d ce 3d
       0.14486676 0.10941728 -0.28964284 0.100885935
000180 51 76 fb bd 09 5a 1a 3c 86 f4 10 3d 44 99 0e 3d
       -0.122784264 0.00942088 0.035389446 0.034814134
000190 6f 6e bf 3d f6 aa b5 3b 10 87 3e 3e 7f f1 be 3d
       0.093472354 0.005544062 0.1860621 0.093234055
0001a0 7c 32 77 bd b9 07 2e be e0 99 b3 bd 0e 8e 3f bd
       -0.06035088 -0.16995133 -0.08769584 -0.046766333
0001b0 a4 3f 2e 3e 36 1a b0 bc 69 cc 0c bd e1 38 a2 3d
       0.17016464 -0.021496873 -0.03437463 0.07921005
0001c0 73 6c 61 bd 02 9f 90 bd 12 3b 60 3e d2 f3 c8 bc
       -0.055035066 -0.07061578 0.21897534 -0.024530325
0001d0 01 13 0f be 94 c6 e0 be f2 be 68 bd 4f 7f 3a bc
       -0.13972093 -0.43901503 -0.056822725 -0.011382892
0001e0 06 a5 a8 be ef 41 08 bd ef 18 6c bd a3 08 b8 3d
       -0.32938403 -0.033266004 -0.057640966 0.08986022
0001f0 b2 15 be 3d 8f e5 b2 bd a7 7e 0d 3e 74 8a a5 3c
       0.09281482 -0.08735191 0.13817845 0.020207621
000200 6f b1 0d be 81 d7 12 bd 7d c2 ca bc 5f 06 fc bd
       -0.13837217 -0.03585005 -0.024750942 -0.12305903
000210 c8 a2 24 3e 05 7c 9f 3e 26 81 93 3e 44 6c 8a 3e
       0.16077721 0.31149307 0.2880947 0.27035725
000220 32 ab 8c be ad 13 00 be fc e2 55 bd 19 4c c2 3e
       -0.27474362 -0.12507506 -0.052218422 0.37948683
000230 10 e5 69 bd f6 d2 87 be b4 f4 a1 3d 98 e7 9b 3d
       -0.057103217 -0.26528138 0.079080015 0.076125324
000240 57 d2 d1 bd 08 0d 50 3e 63 48 12 be 86 8e 0f bd
       -0.10245197 0.20317471 -0.14285426 -0.03504803
000250 bb 43 86 3d 37 1f 61 bd 33 d0 22 3c 98 6e 3c be
       0.06555887 -0.05496141 0.009937334 -0.18401563
000260 6c 90 4d 3e 75 ff 52 be 71 90 ff 3b 5a 70 6d be
       0.20074624 -0.20605262 0.007799201 -0.2318739
000270 93 60 5b be e7 04 9f be 00 e8 e7 3d 50 e4 4e 3e
       -0.21423559 -0.31058428 0.11323547 0.20204282
000280 8a 71 6a 3e db 10 3f 3e 6c 6d c5 3e 6d 80 40 3d
       0.22894874 0.18658774 0.38560045 0.046997476
000290 cb ec c1 3d 86 ee 82 3c 78 f8 09 be e2 89 54 3e
       0.09468993 0.015982877 -0.1347369 0.20755723
0002a0 75 0b 82 3e 19 ab 82 be 9b 16 b2 bd 0e 53 94 bd
       0.25399366 -0.25521162 -0.08695718 -0.07242404
0002b0 2e bb 41 3e 51 ed 21 3e 0d 7e f8 bd 28 ea 0e 3e
       0.1891906 0.15813185 -0.12133417 0.13956511
0002c0 3d c5 4b 3e 2a c0 d3 3b 2e 25 19 3e dc 0c ea 3b
       0.19899459 0.0064621167 0.14955589 0.0071426462
0002d0 93 a5 25 be 38 58 ec 3d ee af 71 3e 3a 99 87 3e
       -0.16176443 0.11540264 0.23602268 0.2648409
0002e0 18 ed 36 bd 88 96 99 3d 64 8e bd bd cd 90 01 3e
       -0.044659704 0.07499415 -0.092556745 0.12652893
0002f0 a2 b9 05 3e de c1 9f 3d a6 83 02 be 3e 9f 8b bd
       0.13059095 0.07800649 -0.12745532 -0.068174824
000300 3e 2a b0 3d eb d7 01 3e f3 1b 23 bd 39 8b 92 3e
       0.08601807 0.12680022 -0.039821576 0.28621843
000310 cd 49 1d 3e dc cb a1 bd 8c 07 c4 3c 9d 57 be bd
       0.15360184 -0.07900211 0.02392938 -0.09294055
000320 f7 e0 f1 3d 7a c5 cf 3d 73 53 78 3d d7 41 17 3e
       0.11810487 0.101450875 0.06062646 0.1477121
000330 b7 50 4b 3e 86 40 23 be bd bb aa 3d e8 c0 05 3e
       0.19855009 -0.15942582 0.083365895 0.13061869
000340 c3 43 65 3d 19 ba 7e 3d 1f 15 5a be e1 5e a2 bd
       0.055972826 0.062189195 -0.2129712 -0.07928253
000350 02 d5 82 3e 2d 78 cd bc 6c 24 2b be 47 a4 96 3d
       0.25553137 -0.025081718 -0.16713113 0.07355552
000360 be f9 07 bc 50 a5 e3 bc 03 79 71 be fa ab 99 bd
       -0.008299289 -0.027788788 -0.23581319 -0.07503505
000370 94 31 ce bd fa 07 62 3d f4 00 5c 3e b5 35 35 be
       -0.1006805 0.05518339 0.21484739 -0.17696269
000380 a7 23 bb 3d c6 42 5f 3e 7a 4d 1f 3e 08 2f 8f 3d
       0.091376595 0.21802816 0.15556899 0.069913924
000390 81 c6 81 3d 81 e9 e7 bd f4 4b 7e bc fe 1c 6f be
       0.0633669 -0.11323834 -0.015521038 -0.23350903
0003a0 cb 7a 55 3d 87 30 54 3e 62 32 68 3e 9b 3a 15 3e
       0.052119058 0.20721637 0.2267547 0.14573137
0003b0 0f 3f 55 3e 16 cf 9e bd 95 29 73 be 9e 82 4f 3d
       0.20824836 -0.07754342 -0.23746331 0.050661676
0003c0 72 77 ab 3d 2a 29 5a 3e 21 e0 c7 3d 33 13 81 bd
       0.08372392 0.21304765 0.09759546 -0.0630249
0003d0 f1 5e cf bd a3 7a 00 be 08 b6 f3 bd 05 c2 c8 bd
       -0.101255305 -0.12546782 -0.11899954 -0.09802631
0003e0 3a 01 c8 bd a3 c9 34 3e f2 76 21 3d 3c bb fc 3c
       -0.09765859 0.17655043 0.039420076 0.030850999
0003f0 d5 f0 a0 be 37 7b 11 3e 5c 86 95 bd ac 10 a2 be
       -0.3143374 0.14207159 -0.07301018 -0.31653345

fc3.bias f4 [10]
000000 c5 9a 72 be aa 06 3f bf c9 5e 0e bd 9f ad 80 bf
       -0.23691852 -0.74619544 -0.034758363 -1.0052985
000010 d6 67 6e 3f 09 c7 c5 3e 30 12 0b 3f 9e 32 25 bd
       0.9312719 0.38628414 0.54324627 -0.040331475
000020 0e ff 0e 3f f9 f2 53 bd
       0.5585793 -0.05174539
