trained_networks/standard_trained_net.pth (torch, 252181 bytes, 10 tensors)

conv1.weight f4 [6, 3, 5, 5]
0.2574749 0.48212337 -0.009439066 -0.38620275 -0.37079495 -0.026577543 0.5968151 1.1311581
0.77900493 0.49510127 -0.019619115 -0.024060046 0.39980298 0.8627664 0.22312862 -0.005889281
-0.44475964 -1.0869014 -0.9956814 -0.2533847 -0.52563924 -0.24771282 -0.05935084 -0.20908655
-0.016282048 -0.15738988 0.17710003 -0.32412502 -0.48404452 -0.057235047 -0.49571666 -0.0057932595
0.73069286 0.88338786 0.4166995 -0.2877396 -0.49578905 0.041404884 0.774099 0.2371259
0.20776859 -0.53758305 -1.3492703 -1.2167511 -0.44940686 0.14123158 0.17109723 0.3522033
0.1571226 0.083982855 0.012082826 0.00812579 -0.6955837 -0.9372621 -0.3299727 -0.33417207
0.093783215 0.5694909 0.41027588 0.20065802 0.034222815 -0.034510907 0.3151734 0.7322857
0.0993631 0.63803154 -0.116641305 -0.90213895 -0.84879607 -0.35756245 0.1750015 0.5126232
0.59224 0.19441316 0.20531921 0.4875243 0.5777237 0.69647616 0.51599956 0.26592654
0.48217136 0.37487844 -0.03897339 -0.29361203 -0.18797779 0.5407772 0.24319647 -0.16149653
-0.22915971 -0.20408837 0.08071425 -0.23848814 -0.062866166 0.01213967 -0.28690565 -0.10722541
-0.37805146 -0.13812998 -0.057662442 -0.20667015 -0.004619846 -0.12532061 -0.49113005 -0.8926735
-0.70791966 0.2381567 0.12065176 -0.61969054 -1.0138437 -0.41137812 0.39825195 -0.109599024
-0.27677703 -0.42460117 -0.13497226 0.09511893 -0.3299246 -0.11493702 0.098565586 -0.14955351
-0.09566844 -0.30340695 0.06751202 0.056176744 0.005320827 0.089955665 0.08231185 -0.06285339
-0.16879973 -0.08698188 0.40824157 0.2224611 -0.24405724 -0.386129 -0.13265191 0.4013938
-0.038212176 -0.16785628 -0.15909182 0.09387927 0.12677576 -0.16752027 0.094266474 0.41902128
0.07945899 -0.09158184 0.0011910858 0.5261884 0.5386161 0.32080802 -0.072406985 -0.08113076
-0.06463029 0.18601154 0.18701555 -0.09611043 -0.052458275 -0.00020915343 0.09757226 0.16555698
-0.122738495 0.020429188 0.068319045 0.17515276 0.14732414 -0.051551785 0.11119351 0.2079948
0.15845908 0.20585059 0.23854272 0.25570336 0.34424815 0.20246325 0.13845487 -0.20087752
-0.16455679 -0.19744214 0.10174031 0.22806172 -0.3372411 -0.21708088 -0.093426034 0.079653434
0.14453158 -0.2973144 -0.1866744 -0.045543153 0.011334116 -0.038116872 -0.07128548 -0.06817251
-0.10392386 -0.15284419 -0.031094017 -0.015197348 0.10872826 -0.0424095 -0.12253223 -0.3865179
-0.06784947 -0.06181704 0.14537117 0.5502907 0.58266276 -0.020598564 -0.018396359 0.4009185
0.5211406 0.41388223 -0.10585525 0.06549163 0.3217551 0.29290986 0.15291134 -0.04956719
-0.0559128 0.18337204 0.13949381 -0.14026 0.029292492 -0.06752497 -0.11177165 -0.20409308
-0.3216863 -0.006504667 -0.061241005 -0.017914817 -0.10773575 0.28363237 -0.20484735 -0.32632497
-0.44015697 -0.2554056 -0.12293686 -0.17053455 -0.388579 -0.25124478 -0.24002868 -0.18357469
-0.35785908 -0.32702905 -0.24123493 -0.22382054 -0.121905655 -0.27050418 -0.25975564 -0.12512468
-0.15569687 0.029111981 -0.09964921 -0.12849472 -0.09362991 -0.09902034 0.066719964 -0.077874474
00000000: c0d3 833e e0d8 f63e 50a6 1abc 5ebc c5be
00000010: d6d8 bdbe 26b9 d9bc e0c8 183f cac9 903f
00000020: de6c 473f ea7d fd3e 44b8 a0bc 9319 c5bc
00000030: fab2 cc3e 42de 5c3f d47b 643e dffa c0bb
00000040: 89b7 e3be 961f 8bbf fae4 7ebf a4bb 81be
00000050: 4b90 06bf 6ea8 7dbe de19 73bd c91a 56be
00000060: ee61 85bc d02a 21be b659 353e b7f3 a5be
00000070: afd4 f7be 4c6f 6abd 93ce fdbe 62d5 bdbb
00000080: b00e 3b3f b525 623f a359 d53e 9b52 93be
00000090: 10d8 fdbe 2b98 293d 5a2b 463f 22d1 723e
000000a0: 4ac1 543e 0b9f 09bf e4b4 acbf 80be 9bbf
000000b0: a818 e6be 039f 103e 1d34 2f3e fe53 b43e
000000c0: bfe4 203e 34ff ab3d 0cf7 453c 0922 053c
000000d0: c611 32bf 69f0 6fbf 2ff2 a8be 9a18 abbe
000000e0: 6a11 c03d 28ca 113f ae0f d23e 4c79 4d3e
000000f0: 392d 0c3d 4f5b 0dbd 685e a13e 1377 3b3f
00000100: e27e cb3d 0956 233f a3e1 eebd 94f2 66bf
00000110: b34a 59bf 6d12 b7be 9833 333e 463b 033f
00000120: 0a9d 173f 3e14 473e 333f 523e c99c f93e
00000130: b3e5 133f 434c 323f 8c18 043f 8627 883e
00000140: 2adf f63e 11f0 bf3e 90a2 1fbd 5154 96be
00000150: 407d 40be 6070 0a3f 7f08 793e 595f 25be
00000160: d8a8 6abe 8bfc 50be 834d a53d 3c36 74be
00000170: fabf 80bd 77e5 463c 4ce5 92be ff98 dbbd
00000180: f68f c1be f271 0dbe 742f 6cbd 57a1 53be
00000190: 1462 97bb 0c54 00be 6675 fbbe 4086 64bf
000001a0: 393a 35bf 5adf 733e 4518 f73d 0aa4 1ebf
000001b0: a1c5 81bf 27a0 d2be aee7 cb3e 7475 e0bd
000001c0: b8b5 8dbe 5365 d9be 2b36 0abe b7cd c23d
000001d0: e1eb a8be 1a64 ebbd c1dc c93d 8e24 19be
000001e0: d1ed c3bd 2858 9bbe be43 8a3d 9619 663d
000001f0: 555a ae3b ad3a b83d 1d93 a83d 47b9 80bd
00000200: d6d9 2cbe 8e23 b2bd 0a05 d13e d8cc 633e
00000210: 24ea 79be b3b2 c5be e7d5 07be 7d83 cd3e
00000220: 5f84 1cbd 84e2 2bbe f7e8 22be c643 c03d
00000230: 81d1 013e 6f8a 2bbe c80e c13d f589 d63e
00000240: 65bb a23d 428f bbbd 351e 9c3a 48b4 063f
00000250: bfe2 093f f340 a43e 1d4a 94bd e227 a6bd
00000260: e35c 84bd cf79 3e3e 0181 3f3e 8cd5 c4bd
00000270: 7dde 56bd 3250 5bb9 f7d3 c73d c587 293e
00000280: 525e fbbd 1d5b a73c dbea 8b3d 3f5b 333e
00000290: 24dc 163e f727 53bd 6cb9 e33d 97fc 543e
000002a0: 1943 223e 7fca 523e 8b44 743e 8deb 823e
000002b0: 4b41 b03e 8752 4f3e 1dc7 0d3e d6b2 4dbe
000002c0: 9381 28be 462e 4abe 395d d03d 0389 693e
000002d0: deaa acbe 734a 5ebe 2656 bfbd 5721 a33d
000002e0: 1600 143e 9839 98be 9327 3fbe 758b 3abd
000002f0: bab2 393c 7020 1cbd 1ffe 91bd 079e 8bbd
00000300: 08d6 d4bd 3083 1cbe e1b8 febc 4cfe 78bc
00000310: ecac de3d 95b5 2dbd 2ef2 fabd ade5 c5be
00000320: aaf4 8abd dd33 7dbd 2edc 143e dadf 0c3f
00000330: 6329 153f 52be a8bc f6b3 96bc 3145 cd3e
00000340: 7869 053f 5fe8 d33e a3ca d8bd 7a20 863d
00000350: 16bd a43e 48f8 953e ca94 1c3e f706 4bbd
00000360: d204 65bd e1c5 3b3e 77d7 0e3e 51a0 0fbe
00000370: cff6 ef3c 884a 8abd 89e8 e4bd c7fd 50be
00000380: 11b4 a4be 1a25 d5bb d9d7 7abd 18c2 92bc
00000390: 90a4 dcbd 4338 913e 81c3 51be 1114 a7be
000003a0: 415c e1be 86c4 82be 52c6 fbbd 9ca0 2ebe
000003b0: d4f3 c6be 28a3 80be 14ca 75be 01fb 3bbe
000003c0: 4e39 b7be 5a70 a7be 4a06 77be 3631 65be
000003d0: aca9 f9bd 867f 8abe b1fe 84be af20 00be
000003e0: 006f 1fbe 407c ee3c e314 ccbd 1f94 03be
000003f0: 0ac1 bfbd 2dcb cabd 7aa4 883d a77c 9fbd

conv1.bias f4 [6]
-0.7336202 -0.47861657 0.055869117 0.40577614 -0.31772572 -0.40420955
00000000: 89ce 3bbf 3b0d f5be 04d7 643d e4c1 cf3e
00000010: f2ac a2be 8ef4 cebe

conv2.weight f4 [16, 6, 5, 5]
-0.27668858 -0.1401108 -0.12141645 0.083665125 0.39543194 -0.23847444 -0.12393898 -0.021337723
0.05929614 0.12503594 -0.21371968 -0.4038181 -0.32732216 -0.23257808 -0.10291765 -0.18798587
-0.23123996 -0.24838616 0.074739955 0.19046943 -0.2072932 -0.086032145 0.012612285 0.15214205
-0.019781353 0.08696625 0.10537346 -0.27656808 -0.08897364 -0.17034838 -0.025094483 0.18357109
0.170205 0.22472836 0.17083211 0.0431827 0.3557857 0.30803323 0.31348944 0.030499475
-0.086818516 0.19812866 0.23367667 0.11770474 -0.071664594 -0.072431475 0.13329135 0.17641199
0.08999418 -0.037363566 0.31924638 -0.00745682 -0.22300296 -0.0065704347 0.16532548 0.42724586
-0.10111803 -0.14191645 -0.26186046 -0.22216919 0.07480975 0.027069215 -0.12653668 -0.27373073
-0.3207674 0.4848531 0.22893336 -0.18344341 -0.30313233 -0.34544 0.38557544 -0.09353874
-0.3203522 -0.36617664 -0.13796866 0.2984568 -0.037024807 -0.020635031 -0.06505883 -0.18940024
0.38338923 0.016192513 -0.12178863 -0.23303308 -0.25943506 0.3813533 0.10267867 -0.066005155
-0.21930154 -0.41748363 0.52029437 0.23818514 0.07596494 -0.3087006 -0.3782564 0.50373787
0.21072587 0.019926863 -0.28071967 -0.26089835 -0.1502628 -0.14292811 -0.017414926 0.0594736
0.30865172 0.037910946 -0.10764769 -0.08621039 -0.08151321 0.20210762 -0.1372646 -0.13138913
-0.29568335 -0.09929902 0.03808958 -0.06280374 -0.10802336 -0.227982 -0.090721086 0.20483603
0.021000056 -0.14223675 -0.11978841 -0.00319462 0.15558179 -0.15765344 -0.17392567 -0.2283569
-0.24707161 -0.34428847 -0.20967145 -0.054573756 0.027899817 -0.2565077 -0.24468508 -0.118050724
0.030665575 -0.15556064 -0.23994577 -0.17095481 -0.038353324 -0.11651435 -0.21701716 -0.19581221
0.11258559 -0.07463624 -0.20604305 0.06302983 0.080591775 0.05971585 0.18586184 0.1286941
-0.12563416 -0.3752501 0.19727549 0.18652616 0.16519289 -0.06749963 -0.47728416 -0.06890361
0.050212663 0.14617187 0.019453961 -0.40265518 -0.3633703 0.22665763 0.35134467 0.27742055
-0.34508198 -0.43906355 -0.2955226 -0.07959135 -0.24556428 -0.39253637 -0.4142292 0.021371497
-0.004719376 0.12426691 0.24629518 0.26281318 0.05872403 -0.055687174 -0.0014739821 0.3170577
0.30380306 -0.057179667 -0.22296041 -0.22230296 0.33247957 0.13627954 -0.03303057 -0.20487775
-0.23909527 0.33093944 0.018447753 -0.17285901 -0.22543424 -0.33005527 0.11522565 0.16197024
0.2086147 0.17992191 -0.041094013 -0.0050765327 0.25362423 0.020095205 0.15352304 -0.124903515
-0.22005531 0.037134282 -0.14905132 0.024355993 0.07717687 -0.3364481 -0.1588333 -0.14590034
0.014406044 0.10171455 -0.16917373 0.01449133 -0.09445601 0.058593094 0.07107107 -0.08061275
-0.046583474 0.05727496 0.0022626983 -0.20583631 -0.069625095 0.36932346 0.070696354 0.08008452
-0.08565057 -0.023981957 0.14332964 0.08280742 0.020534424 -0.07096244 -0.10203883 0.1630327
-0.18551855 -0.17736955 -0.056860074 -0.12567182 -0.08931031 -0.17705832 0.040116284 0.10336579
-0.08528756 -0.09898347 0.17117204 0.3756811 0.31170484 -0.13456264 -0.18545778 0.17863473
00000000: 20aa 8dbe 3579 0fbe 30a9 f8bd 9f58 ab3d
00000010: 0e76 ca3e a532 74be b8d3 fdbd 73cc aebc
00000020: 82e0 723d 6c09 003e 55d9 5abe 3fc1 cebe
00000030: c596 a7be f328 6ebe 7dc6 d2bd 5e7f 40be
00000040: 2bca 6cbe f158 7ebe 4311 993d 6b0a 433e
00000050: ab44 54be 9f31 b0bd c2a3 4e3c 20cb 1b3e
00000060: 810c a2bc 5c1b b23d 0ace d73d 559a 8dbe
00000070: d037 b6bd ce6f 2ebe f292 cdbc 0ffa 3b3e
00000080: 384a 2e3e 311f 663e 9dee 2e3e 58e0 303d
00000090: 8b29 b63e 88b6 9d3e b081 a03e 09da f93c
000000a0: e8cd b1bd 3de2 4a3e f048 6f3e 2f0f f13d
000000b0: e3c4 92bd f456 94bd 877d 083e 58a5 343e
000000c0: de4e b83d 8a0a 19bd 4374 a33e 5758 f4bb
000000d0: e35a 64be cd4c d7bb 154b 293e f8bf da3e
000000e0: f816 cfbd 8c52 11be 9312 86be 5280 63be
000000f0: db35 993d 42c0 dd3c d592 01be 6f26 8cbe
00000100: a03b a4be aa3e f83e 826d 6a3e 97d8 3bbe
00000110: 2934 9bbe 83dd b0be 256a c53e 3d91 bfbd
00000120: 3405 a4be 817b bbbe a847 0dbe 54cf 983e
00000130: 53a7 17bd cc0a a9bc 903d 85bd 23f2 41be
00000140: 984b c43e 29a6 843c 516c f9bd 39a0 6ebe
00000150: acd4 84be bd40 c33e 3249 d23d b62d 87bd
00000160: 9590 60be 6ac0 d5be 0332 053f cee6 733e
00000170: 8293 9b3d 010e 9ebe d3aa c1be f7f4 003f
00000180: 86c8 573e a93d a33c 7dba 8fbe 7894 85be
00000190: 7ede 19be bf5b 12be bfa9 8ebc 979a 733d
000001a0: 9907 9e3e 8248 1b3d 6476 dcbd 138f b0bd
000001b0: 66f0 a6bd 4df5 4e3e 178f 0cbe df8a 06be
000001c0: cf63 97be 495d cbbd d203 1c3d 3f9f 80bd
000001d0: 5a3b ddbd 1d74 69be facb b9bd 89c0 513e
000001e0: 4f08 ac3c 83a6 11be a053 f5bd d45c 51bb
000001f0: d550 1f3e e76f 21be 9219 32be 64d6 69be
00000200: 5700 7dbe 9446 b0be 1db4 56be bb88 5fbd
00000210: 288e e43c fa54 83be ba8e 7abe 94c4 f1bd
00000220: 5f36 fb3c 4a4b 1fbe 58b4 75be c70e 2fbe
00000230: 6018 1dbd 139f eebd bf39 5ebe ff82 48be
00000240: 4693 e63d e3da 98bd f3fc 52be c915 813d
00000250: 4d0d a53d 9b98 743d 9152 3e3e 63c8 033e
00000260: 3ea6 00be c820 c0be 9602 4a3e b700 3f3e
00000270: 5328 293e 3f3d 8abd 975e f4be 561d 8dbd
00000280: cbab 4d3d 14ae 153e ea5d 9f3c d228 cebe
00000290: ac0b babe f018 683e 73e3 b33e 110a 8e3e
000002a0: 96ae b0be f0cc e0be bd4e 97be ca00 a3bd
000002b0: 3475 7bbe 87fa c8be da15 d4be 4713 af3c
000002c0: ffa4 9abb a67f fe3d ce34 7c3e 738f 863e
000002d0: 9c88 703d 3c18 64bd a232 c1ba 6355 a23e
000002e0: 138c 9b3e 3a35 6abd bc4f 64be 63a3 63be
000002f0: c33a aa3e dd8c 0b3e 104b 07bd 79cb 51be
00000300: 64d5 74be e570 a93e be1f 973c f401 31be
00000310: 3cd8 66be 01fd a8be 6dfb eb3d 87db 253e
00000320: 189f 553e 733d 383e 3252 28bd 0b59 a6bb
00000330: 09db 813e b39e a43c 2535 1d3e 6acd ffbd
00000340: 2e56 61be 1e1a 183d e9a0 18be 3886 c73c
00000350: e80e 9e3d ed42 acbe 32a5 22be e666 15be
00000360: 5407 6c3c b84f d03d e13b 2dbe 0b6d 6d3c
00000370: 2772 c1bd 50ff 6f3d b68d 913d 4c18 a5bd
00000380: 50ce 3ebd 2699 6a3d c749 143b c1c6 52be
00000390: 9a97 8ebd f717 bd3e 40c9 903d 5a03 a43d
000003a0: 9169 afbd cf75 c4bc 01c5 123e f096 a93d
000003b0: cf37 a83c c154 91bd bcf9 d0bd 0bf2 263e
000003c0: 93f8 3dbe 5da0 35be 1ce6 68bd 1db0 00be
000003d0: 53e8 b6bd c74e 35be f950 243d 71b1 d33d
000003e0: 3fab aebd d8b7 cabd b947 2f3e 4659 c03e
000003f0: c797 9f3e caca 09be a5e8 3dbe 06ec 363e

conv2.bias f4 [16]
0.40163344 -0.7163034 -0.016387625 -0.42268842 0.440585 -0.69889075 -0.89162266 -0.8073813
1.2043157 1.5561286 0.631799 2.1080678 0.7784855 -0.207386 -0.7472124 -2.1013389
00000000: e6a2 cd3e a95f 37bf 573f 86bc 9e6a d8be
00000010: 5b94 e13e 81ea 32bf 6241 64bf 8ab0 4ebf
00000020: 0427 9a3f 392f c73f 94bd 213f 95ea 0640
00000030: d34a 473f ff5c 54be 5049 3fbf 567c 06c0

fc1.weight f4 [120, 400]
-0.019005256 0.11687189 -0.0060003307 0.14256918 0.028473828 0.24132381 0.10531362 0.16285819
0.03815482 -0.030205667 0.090717986 -0.047194313 0.07351192 -0.0029226309 0.047349535 0.033926394
-0.006807701 0.07280679 -0.0051287515 0.05897163 0.047876883 -0.06554631 -0.07498959 0.058589548
0.008105941 0.02982607 -0.034482814 -0.039188184 0.2397435 0.026578523 -0.004111695 0.045212705
-0.053397283 0.18078609 -0.21370037 -0.10279805 0.14557537 0.017192475 0.113949925 -0.10171073
-0.0893021 -0.031021822 -0.0394161 -0.02523764 -0.06395442 -0.09391644 -0.12368912 -0.114414364
-0.051367275 0.06430394 0.056091063 0.03101317 0.10561267 0.024088142 0.0023917945 0.015889674
0.034552533 -0.0361892 0.058824092 -0.02181457 -0.024724286 0.028906308 0.009525334 -0.028690508
0.07025973 0.051571146 0.090815395 -0.00915572 -0.067828566 -0.010777178 0.11701851 0.04138078
-0.13089128 -0.032323822 0.013864064 0.16460861 0.056684796 0.114121504 -0.13178226 -0.13905123
0.13810667 -0.07026182 0.13983615 -0.089675926 -0.15308966 -0.14499615 -0.18508036 -0.052208215
0.1360929 0.007644256 0.0030124325 0.03329716 -0.09584868 0.059824187 -0.03798568 0.06306568
0.05603854 0.021321135 0.15247546 -0.033666555 0.031907503 0.0245652 -0.07692628 0.035665356
-0.08427359 -0.09705107 -0.06670451 -0.082757115 -0.06418647 0.0146306595 -0.043072306 0.058406048
-0.08799137 -0.008883616 -0.012523658 -0.13726561 -0.07850006 -0.09105209 -0.10531242 -0.040127266
-0.1432623 0.007582133 0.025197823 -0.075955115 -0.10240196 -0.060036536 -0.0978892 -0.035430346
0.12413593 0.07877986 -0.024747487 -0.037414912 -0.06334027 -0.094795495 -0.11861721 -0.06088127
0.047146697 -0.088855185 -0.10739501 -0.09445023 0.006123664 0.0977905 0.012105881 0.08605717
-0.06364201 -0.0035623019 0.09351855 -0.050254226 0.11835711 0.06761833 0.053871028 -0.047723033
-0.070452675 0.008399483 -0.06324505 -0.04188254 -0.12729084 -0.18638371 -0.039350994 0.010369379
-0.10977264 -0.19101547 -0.106260225 -0.067344174 -0.10082884 -0.03612252 -0.10072517 -0.03862908
-0.06807597 -0.17165768 -0.036320906 -0.020894757 -0.006231796 0.06570419 -0.12170192 0.18499433
0.04085111 -0.0077731083 -0.13163865 0.061555307 0.028159115 0.037323784 -0.016943447 -0.047198944
-0.054400593 0.0022962068 0.0043784855 0.08375451 0.08252628 0.07253111 -0.061977353 -0.04819598
0.06143837 0.12857963 0.09919791 0.056414638 -0.02603223 0.03264991 0.06580387 0.06539078
0.020634217 0.009332343 0.066834785 0.15379 0.1692188 -0.008857966 -0.0311734 -0.07541632
0.029271567 0.12252742 0.13938192 -0.083952166 -0.008917288 -0.0412967 -0.062267628 -0.019290954
-0.009024165 0.014117377 -0.036026493 0.052823227 -0.10373717 0.066534735 -0.024428735 0.018510334
-0.06440261 -0.04888899 -0.05133132 -0.13999216 0.05281077 -0.053978335 -0.09610884 -0.119256005
-0.08436455 0.1294417 0.06677743 -0.039055105 -0.04569263 -0.010489475 0.0531581 -0.065061115
-0.023643637 -0.021927372 -0.036805067 0.0031957456 -0.14690796 -0.024837812 0.023432206 -0.11135418
-0.092479095 -0.26999754 0.045502145 -0.023591414 0.012643369 0.033961825 -0.028768137 -0.07057626
00000000: e9b0 9bbc 885a ef3d 6c9e c4bb a8fd 113e
00000010: f241 e93c 971d 773e abae d73d 4cc4 263e
00000020: 3b48 1c3d e071 f7bc 5aca b93d d34e 41bd
00000030: 6b8d 963d 9c89 3fbb 96f1 413d 67f6 0a3d
00000040: 2313 dfbb ba1b 953d 160f a8bb 3c8c 713d
00000050: 8d1a 443d 253d 86bd 2494 99bd 98fb 6f3d
00000060: c8ce 043c cd55 f43c da3d 0dbd ca83 20bd
00000070: 527f 753e 34bb d93c 66bb 86bb f530 393d
00000080: 1cb7 5abd fd1f 393e 45d4 5abe c987 d2bd
00000090: b611 153e 3cd7 8c3c 945e e93d b74d d0bd
000000a0: 05e4 b6bd 7a21 febc c772 21bd 2bbf cebc
000000b0: 89fa 82bd 4357 c0bd b950 fdbd 1452 eabd
000000c0: 7e66 52bd c9b1 833d bebf 653d 550f fe3c
000000d0: 754b d83d 7f54 c53c a7bf 1c3b 102b 823c
000000e0: f586 0d3d 203b 14bd 88f1 703d 78b4 b2bc
000000f0: 968a cabc eccc ec3c 2610 1c3c 5b08 ebbc
00000100: 55e4 8f3d 443c 533d 6cfd b93d df01 16bc
00000110: b4e9 8abd c392 30bc 67a7 ef3d e57e 293d
00000120: 5d08 06be fc65 04bd 1926 633c 298f 283e
00000130: 512e 683d 89b8 e93d eef1 06be 7263 0ebe
00000140: d66b 0d3e 6ee5 8fbd 3531 0f3e 03a8 b7bd
00000150: 89c3 1cbe df79 14be b585 3dbe 48d8 55bd
00000160: f05b 0b3e ab7c fa3b 3b6c 453b 9a62 083d
00000170: 504c c4bd 350a 753d df96 1bbd 9428 813d
00000180: ab88 653d a9a9 ae3c 8722 1c3e f1e5 09bd
00000190: 71b1 023d f53c c93c 878b 9dbd d615 123d
000001a0: a297 acbd b6c2 c6bd 609c 88bd 907c a9bd
000001b0: 3274 83bd 6fb5 6f3c 966c 30bd 2e3b 6f3d
000001c0: d234 b4bd 968c 11bc 0730 4dbc 5b8f 0cbe
000001d0: a4c4 a0bd 8579 babd 0aae d7bd 7d5c 24bd
000001e0: 5ab3 12be 8b73 f83b aa6b ce3c 5b8e 9bbd
000001f0: 1eb8 d1bd dfe8 75bd 227a c8bd 691f 11bd
00000200: fa3a fe3d 5657 a13d 3ebb cabc 6140 19bd
00000210: 8bb8 81bd 2424 c2bd 94ed f2bd a35e 79bd
00000220: e51c 413d b5f9 b5bd eaf1 dbbd 1f6f c1bd
00000230: 04a9 c83b 6346 c83d bf57 463c be3e b03d
00000240: be56 82bd 8275 69bb a786 bf3d 60d7 4dbd
00000250: 3665 f23d 7b7b 8a3d dea7 5c3d 3a79 43bd
00000260: 7e49 90bd fc9d 093c 9f86 81bd 078d 2bbd
00000270: 8858 02be 5fdb 3ebe 822e 21bd 54e4 293c
00000280: 7ad0 e0bd 8f99 43be f69e d9bd beeb 89bd
00000290: 5a7f cebd 35f5 13bd ff48 cebd 8739 1ebd
000002a0: 6a6b 8bbd 08c7 2fbe 3bc5 14bd 7b2b abbc
000002b0: 1834 ccbb eb8f 863d db3e f9bd 276f 3d3e
000002c0: 7e53 273d 8fb5 febb 48cc 06be 6b21 7c3d
000002d0: f2ad e63c d3e0 183d fccc 8abc ae53 41bd
000002e0: 28d3 5ebd f57b 163b 6679 8f3b 7c87 ab3d
000002f0: 8a03 a93d 318b 943d f7db 7dbd 2669 45bd
00000300: cda6 7b3d 61aa 033e 4628 cb3d 0913 673d
00000310: 8b41 d5bc e9bb 053d 2ec4 863d 9aeb 853d
00000320: 1709 a93c afe6 183c ade0 883d 207b 1d3e
00000330: b147 2d3e 0121 11bc 5c5f ffbc df73 9abd
00000340: edca ef3c a8ef fa3d 22ba 0e3e 1def abbd
00000350: d119 12bc ba26 29bd 570c 7fbd 1008 9ebc
00000360: 17da 13bc 924c 673c 8490 13bd 2b5d 583d
00000370: 2774 d4bd 5d43 883d c51e c8bc fca2 973c
00000380: 84e5 83bd d23f 48bd ca40 52bd 1b5a 0fbe
00000390: 1b50 583d 6318 5dbd b6d4 c4bd 7e3c f4bd
000003a0: 52c7 acbd 5d8c 043e 9bc2 883d 3ff8 1fbd
000003b0: 3228 3bbd 0cdc 2bbc 4fbc 593d c33e 85bd
000003c0: 4db0 c1bc 08a1 b3bc e9c0 16bd b76f 513b
000003d0: 0a6f 16be ab78 cbbc e6f4 bf3c a90d e4bd
000003e0: ae65 bdbd 1e3d 8abe 7560 3a3d c842 c1bc
000003f0: 2226 4f3c 8e1b 0b3d 28ab ebbc 498a 90bd

fc1.bias f4 [120]
-0.010398868 -0.13665107 -0.08862547 0.20365973 -0.008953846 -0.03783558 0.14386575 -0.12829918
0.059679482 0.017292416 0.30279902 0.18524112 -0.015724959 0.10734199 0.037209816 -0.21904413
0.072901994 0.006990448 -0.06493082 0.12672374 0.15958904 -0.041499544 0.08606573 0.075788744
0.31738865 -0.016674591 0.12674566 0.42242196 0.00026345628 -0.02939395 -0.07993295 0.058848
0.17273156 0.18385321 0.20520039 0.04885431 0.2132405 0.12004206 0.22768758 0.21523573
-0.1874762 0.0884263 -0.054090362 -0.1914473 0.24889025 -0.050521728 -0.010901205 0.106227174
0.064099416 -0.010870913 -0.1393375 0.42943692 -0.035695005 0.060881414 0.003274124 0.21779385
0.06855297 0.057761386 0.15224656 -0.027142044 0.1482573 -0.011289156 0.13120899 0.017244464
0.21201588 0.18002054 0.07619937 -0.039073337 -0.012997187 0.10557655 -0.021889864 -0.013778157
-0.04158256 0.033708192 -0.5125711 -0.14621882 0.28478777 -0.040980794 0.026600255 -0.05678109
0.03128279 0.013203925 0.031681627 -0.1680913 -0.18327439 0.067713566 0.56613743 -0.16945586
0.09621484 0.053590648 -0.14498854 -0.04644455 0.20022649 0.31061423 0.09926962 -0.12988475
0.026297186 0.23439072 0.04782135 -0.11823065 -0.003961183 0.004085653 0.0033697353 -0.41432157
-0.19112153 0.008983645 0.1939118 0.0034630878 -0.07814611 -0.22803967 -0.022710903 -0.36293036
-0.044768035 0.17440717 0.22635213 -0.056875356 -0.050753824 -0.06745214 0.09797656 0.28854626
00000000: 0360 2abc 42ee 0bbe 4581 b5bd 2d8c 503e
00000010: 27b3 12bc 7bf9 1abd 8b51 133e dc60 03be
00000020: 7972 743d d3a8 8d3c 7908 9b3e d9af 3d3e
00000030: a1d1 80bc 1ed6 db3d 5269 183d 1b4d 60be
00000040: a44d 953d 2110 e53b 73fa 84bd dec3 013e
00000050: 4f6b 233e 6dfb 29bd 3b43 b03d 2137 9b3d
00000060: c480 a23e 2799 88bc 9dc9 013e b147 d83e
00000070: 8120 8a39 95cb f0bc e3b3 a3bd 9a0a 713d
00000080: 8be0 303e 0444 3c3e 0d20 523e 751b 483d
00000090: b85b 5a3e 9dd8 f53d ef26 693e c166 5c3e
000000a0: c3f9 3fbe d918 b53d db8d 5dbd c30a 44be
000000b0: 16dd 7e3e dfef 4ebd f89a 32bc a28d d93d
000000c0: 8e46 833d ea1b 32bc 7dae 0ebe 28df db3e
000000d0: ed34 12bd ca5e 793d b092 563b 5a05 5f3e
000000e0: 8065 8c3d 3497 6c3d 86e6 1b3e fe58 debc
000000f0: c3d0 173e 27f6 38bc a65b 063e 4344 8d3c
00000100: b11a 593e 4e57 383e 6a0e 9c3d 5d0b 20bd
00000110: 27f2 54bc 8538 d83d 5f52 b3bc c7bd 61bc
00000120: 7952 2abd 9a11 0a3d dc37 03bf 63ba 15be
00000130: b4cf 913e 7adb 27bd c7e8 d93c 4a93 68bd
00000140: 6222 003d 4755 583c 98c4 013d 2020 2cbe
00000150: 48ac 3bbe 69ad 8a3d 62ee 103f d685 2dbe
00000160: 490c c53d de81 5b3d e077 14be a43c 3ebd
00000170: 2c08 4d3e d408 9f3e df4d cb3d 8200 05be
00000180: 326d d73c 1f04 703e 52e0 433d e922 f2bd
00000190: d0cc 81bb f1e0 853b c7d6 5c3b f521 d4be
000001a0: 5db5 43be 2330 133c d190 463e f9f4 623b
000001b0: 110b a0bd 3b83 69be 370c babc 02d2 b9be
000001c0: b05e 37bd cb97 323e dac8 673e 22f6 68bd
000001d0: 3ee3 4fbd 5924 8abd efa7 c83d 56bc 933e

fc2.weight f4 [84, 120]
-0.14773895 -0.20819493 0.013876091 0.0028699127 -0.008182118 0.114201404 -0.0014677995 -0.21948744
-0.2752623 -0.010657246 -0.05042464 -0.11459998 -0.16850094 -0.027370652 0.044775814 -0.07300672
0.034850076 -0.05955525 -0.06514649 0.027651917 0.11941709 -0.14374438 0.042864956 -0.0070314924
-0.029484848 -0.02930847 0.077623844 0.09528791 -0.08473813 -0.120164685 -0.08099138 -0.07883511
-0.033155706 -0.056976844 0.1339583 -0.086591564 -0.053805925 0.074528605 0.11308668 0.089389436
-0.015974121 -0.16550483 -0.03606579 -0.039279908 -0.06416005 0.07447998 0.06814029 0.048952162
-0.09558274 0.043598108 -0.25636494 0.024669588 0.0544581 0.04338152 -0.00350011 0.08088423
0.103975885 -0.1355791 0.039755728 0.056462705 0.04391889 -0.002455704 -0.041881975 -0.10383163
0.06894072 0.05382238 0.116504155 0.05594932 0.13175187 0.023020698 -0.049078636 0.10826156
0.09675204 0.0348781 -0.11415959 -0.19288716 -0.07561041 0.015142172 0.05763799 -0.18333617
0.10855808 -0.054934658 0.069382265 -0.06146527 -0.10896453 -0.08553228 0.12407464 -0.09471199
0.0067542996 -0.13824752 0.008187556 -0.114101306 0.09709853 0.19987917 0.12946787 -0.05473142
-0.05434665 -0.111156076 -0.0569164 -0.1683464 0.17430606 -0.14245965 -0.069466874 -0.021026688
-0.021215303 -0.070097476 0.010240065 -0.032324582 -0.062308513 0.096184775 -0.14339136 0.0069038025
0.22178753 -0.026027242 0.037472297 0.033449937 -0.14050297 -0.032804996 -0.14638285 0.10196672
-0.1365937 -0.048174653 -0.047503654 -0.10203373 0.030408155 0.120752946 0.13523515 -0.11435417
-0.14005524 -0.007223144 -0.041340474 0.13905057 -0.23204629 0.07221543 0.013038235 -0.03602027
0.24036019 -0.11332622 0.07155606 0.09863577 -0.0030687584 -0.07825698 -0.036464546 0.051437333
0.065051034 -0.019247111 -0.1616406 -0.057482187 0.0070094247 -0.09390086 -0.12432214 -0.11131883
0.04859415 -0.08270367 0.18188277 -0.037858956 -0.0836033 -0.19025393 -0.08350257 -0.05138749
-0.110192694 -0.13851397 -0.058291353 0.21436629 -0.1961033 -0.084812365 0.065391116 0.009710957
-0.028184582 0.14220078 -0.03045464 -0.05956387 -0.013318992 -0.012408489 0.07283898 0.01170725
-0.005744158 0.2847342 -0.09574136 -0.074717306 -0.016982771 0.03509667 -0.05740882 -0.09434452
0.05051428 -0.13235235 -0.110033035 0.07751934 -0.06335663 -0.01842792 -0.19904386 0.02332555
-0.0828584 0.0302106 -0.13872266 0.0016555827 -0.1721096 0.07024312 0.020241698 0.038469646
-0.06793908 -0.072668806 -0.0037474916 -0.017252577 0.20669857 0.05780836 -0.082406625 -0.029171739
0.019067092 0.06863107 -0.13072573 -0.16148984 -0.07111266 0.0466831 -0.07989097 -0.07637657
-0.07534452 -0.10461279 -0.005850048 0.0133051425 -0.020189203 -0.11378431 0.055903375 -0.0213395
-0.20570153 -0.0550171 0.022484573 -0.19778545 -0.021713195 0.1328829 -0.091023974 -0.05814011
0.044411663 0.011588838 0.12813458 0.08304407 0.08963355 -0.06359941 -0.13596979 -0.09925547
0.1548119 -0.071861684 -0.12175561 -0.15381138 -0.007146433 0.18747434 -0.15712817 -0.03185535
0.071837336 0.048253633 -0.0024637133 0.17026338 -0.06372052 0.14053889 -0.098917626 -0.120578185
00000000: e148 17be 0d31 55be 8b58 633c 2515 3c3b
00000010: 4a0e 06bc 6de2 e93d 2e63 c0ba 51c1 60be
00000020: 2eef 8cbe bb9b 2ebc 118a 4ebd 65b3 eabd
00000030: 838b 2cbe 6b38 e0bc d866 373d 8c84 95bd
00000040: f4be 0e3d 35f0 73bd 866b 85bd 4686 e23c
00000050: f390 f43d ba31 13be 2a93 2f3d 6f68 e6bb
00000060: 358a f1bc 5118 f0bc 40f9 9e3d 4f26 c33d
00000070: 2f8b adbd e718 f6bd cfde a5bd 4d74 a1bd
00000080: 47ce 07bd 8d60 69bd 5d2c 093e eb56 b1bd
00000090: 9a63 5cbd 74a2 983d fd99 e73d cf11 b73d
000000a0: 29dc 82bc 197a 29be b9b9 13bd f8e3 20bd
000000b0: 5866 83bd f688 983d 238d 8b3d 1082 483d
000000c0: e2c0 c3bd ee93 323d 4442 83be e017 ca3c
000000d0: 750f 5f3d d2b0 313d 1a62 65bb a2a6 a53d
000000e0: 4ff1 d43d 3fd5 0abe e7d6 223d 7045 673d
000000f0: 4be4 333d e0ef 20bb 6f8c 2bbd ada5 d4bd
00000100: cb30 8d3d db74 5c3d bb99 ee3d 1d2b 653d
00000110: f6e9 063e e795 bc3c ae06 49bd 3db8 dd3d
00000120: ef25 c63d 57dc 0e3d 81cc e9bd 3684 45be
00000130: a1d9 9abd df16 783c d015 6c3d 7abc 3bbe
00000140: b353 de3d 2a03 61bd 4a18 8e3d 02c3 7bbd
00000150: cc28 dfbd 8c2b afbd d81a fe3d 5cf8 c1bd
00000160: 2c53 dd3b c290 0dbe 1925 063c f2ad e9bd
00000170: 98db c63d 20ad 4c3e 3a93 043e 0e2e 60bd
00000180: 989a 5ebd cca5 e3bd 2c21 69bd 0063 2cbe
00000190: 4a7d 323e f1e0 11be a644 8ebd 2940 acbc
000001a0: b7cb adbc 448f 8fbd f2c5 273c c866 04bd
000001b0: 3637 7fbd 86fc c43d 2fd5 12be 4b39 e23b
000001c0: 451c 633e 1537 d5bc 8d7c 193d cd02 093d
000001d0: 03e0 0fbe 885e 06bd 63e5 15be edd3 d03d
000001e0: 38df 0bbe c952 45bd 3193 42bd 0ff7 d0bd
000001f0: 861a f93c 524d f73d 157b 0a3e 8532 eabd
00000200: a46a 0fbe 20b0 ecbb a154 29bd 4663 0e3e
00000210: 8b9d 6dbe afe5 933d 529e 553c fe89 13bd
00000220: fb20 763e 9417 e8bd fc8b 923d 8d01 ca3d
00000230: 391d 49bb 3245 a0bd d95b 15bd f4af 523d
00000240: 7a39 853d 1eac 9dbc 1d85 25be 7172 6bbd
00000250: 51af e53b 184f c0bd 9b9c febd 20fb e3bd
00000260: a90a 473d 8b60 a9bd 7a3f 3a3e fe11 1bbd
00000270: 3538 abbd edd1 42be 6503 abbd b07b 52bd
00000280: b5ac e1bd 9bd6 0dbe eac2 6ebd d682 5b3e
00000290: 4ecf 48be 1bb2 adbd c7eb 853d b51a 1f3c
000002a0: 5ae3 e6bc 159d 113e 027c f9bc 3ff9 73bd
000002b0: e737 5abc fa4c 4bbc 9a2c 953d c4cf 3f3c
000002c0: 7d39 bcbb aec8 913e 0c14 c4bd 6305 99bd
000002d0: 741f 8bbc 87c1 0f3d 8325 6bbd b337 c1bd
000002e0: 10e8 4e3d 6087 07be 0059 e1bd 76c2 9e3d
000002f0: 1fc1 81bd 26f6 96bc 27d2 4bbe 3915 bf3c
00000300: aab1 a9bd 387c f73c 500d 0ebe 2300 d93a
00000310: 803d 30be a0db 8f3d ebd1 a53c 5992 1d3d
00000320: a523 8bbd 62d3 94bd 7a98 75bb 4755 8dbc
00000330: caa8 533e 75c8 6c3d cec4 a8bd 92f9 eebc
00000340: 9732 9c3c 728e 8c3d f7dc 05be 985d 25be
00000350: 84a3 91bd c736 3f3d e09d a3bd 526b 9cbd
00000360: 3a4e 9abd 3b3f d6bd c2b1 bfbb d0fd 593c
00000370: d463 a5bc c007 e9bd f0fa 643d 2dd0 aebc
00000380: 6ca3 52be 9c59 61bd 9131 b83c 4588 4abe
00000390: dfdf b1bc 7412 083e c76a babd 5324 6ebd
000003a0: 01e9 353d 1cdf 3d3c b635 033e 0213 aa3d
000003b0: cb91 b73d 6840 82bd aa3b 0bbe 7446 cbbd
000003c0: 0387 1e3e 382c 93bd 015b f9bd bb80 1dbe
000003d0: a02c eabb 46f9 3f3e 35e6 20be c17a 02bd
000003e0: 741f 933d 9aa5 453d 4076 21bb 8659 2e3e
000003f0: e77f 82bd 6de9 0f3e 5395 cabd b2f1 f6bd

fc2.bias f4 [84]
0.43222758 -0.0006204353 -0.07571026 0.10843983 -0.17508392 0.22603913 0.08185652 0.3373318
0.35528925 -0.036251504 0.3652363 0.3756527 0.13808802 0.101320446 0.2219157 -0.06772083
-0.082598306 0.20386735 0.49679667 0.24907799 0.12529126 -0.0567727 -0.055169243 -0.03393878
0.15146227 0.4201991 -0.056767844 -0.044657607 -0.1079245 0.32129285 -0.029303912 0.20838793
-0.1263776 0.2632244 0.3910963 0.23188181 0.32235447 -0.09254637 -0.031424236 0.40567932
-0.10880281 0.652393 -0.06125323 0.27054098 -0.04401151 0.52546674 0.101643115 0.13678674
-0.025263753 0.39789337 0.17984723 1.0098804 0.09278432 0.12859476 -0.09564304 -0.022462117
0.3272363 0.396226 -0.1207804 0.23677903 0.27492243 -0.06746948 0.031304747 0.46930158
0.019822279 -0.16131943 0.29258293 0.24717538 -0.24301426 -0.022493739 0.19933645 0.42791006
0.22156124 0.07797934 0.6365492 0.58486354 -0.05149628 0.6101055 0.11150252 0.69943416
0.34788722 0.24658166 0.063788004 -0.10587432
00000000: ef4c dd3e b5a4 22ba fb0d 9bbd b415 de3d
00000010: 3349 33be cd76 673e 64a4 a73d c1b6 ac3e
00000020: 79e8 b53e 757c 14bd 4100 bb3e 8d55 c03e
00000030: f266 0d3e 1881 cf3d df3d 633e 38b1 8abd
00000040: 4d29 a9bd 9ac2 503e 225c fe3e 4d0e 7f3e
00000050: 5a4c 003e 7e8a 68bd 25f9 61bd 6403 0bbd
00000060: ed18 1b3e 5624 d73e 6685 68bd e5ea 36bd
00000070: 8507 ddbd 7f80 a43e c20e f0bc a563 553e
00000080: 2169 01be 59c5 863e c63d c83e 6d72 6d3e
00000090: a50b a53e f488 bdbd b3b6 00bd 33b5 cf3e
000000a0: 02d4 debd 3a03 273f abe4 7abd 5984 8a3e
000000b0: 6a45 34bd fd84 063f 442a d03d d311 0c3e
000000c0: eef5 cebc aeb8 cb3e df29 383e c343 813f
000000d0: b505 be3d 58ae 033e 80e0 c3bd 7902 b8bc
000000e0: 848b a73e 22de ca3e b75b f7bd 3476 723e
000000f0: a2c2 8c3e 702d 8abd 6839 003d 4c48 f03e
00000100: 5562 a23c ec30 25be 6ecd 953e 8b1b 7d3e
00000110: bbd8 78be ca44 b8bc db1e 4c3e 0717 db3e
00000120: f3e0 623e a2b3 9f3d e3f4 223f 9eb9 153f
00000130: c3ed 52bd e02f 1c3f 6f5b e43d 1e0e 333f
00000140: 461e b23e e77f 7c3e 49a3 823d a3d4 d8bd

fc3.weight f4 [10, 84]
-0.28181893 0.1769539 0.19769375 0.18672128 0.09976101 0.03819432 -0.11642264 0.007039517
0.20899232 0.20040512 0.2647843 0.21315016 -0.22076774 -0.04089435 -0.07450289 -0.05646718
0.092694186 -0.15512866 0.18992552 0.22327033 -0.37474805 -0.0047198166 -0.13506997 0.09905871
0.16894267 -0.15340105 0.20829318 0.19413391 -0.09487823 -0.15220113 0.0693987 -0.07475745
0.097423755 -0.12509549 0.20936628 -0.1660927 -0.24333857 0.09469003 -0.022922399 -0.035239067
0.015346559 -0.3255495 -0.03439586 0.02988617 0.025323292 -0.15651536 -0.17494097 0.16445924
0.071802184 0.015892727 0.16751151 -0.3491351 0.11444519 0.03741146 0.11350227 0.15698859
0.17844455 -0.02158226 0.074759506 0.19554636 0.003449851 -0.031173132 0.09409291 -0.17883176
-0.004201084 0.17044665 0.31037265 -0.13857666 0.0517197 0.11779868 0.20135888 -0.08447984
0.15597485 -0.18923326 -0.11511874 0.21663308 0.104721375 -0.19674923 0.06301253 -0.10404282
0.2628224 -0.15497632 -0.2468657 -0.12976685 -0.067469366 -0.1337636 0.2711363 0.011944755
0.31859797 -0.034653507 -0.03935759 -0.34402105 -0.07035022 -0.066453815 0.2352518 0.35041904
-0.20773067 -0.049573712 -0.18731563 0.05026288 -0.006500725 -0.13551262 -0.16320814 0.34904346
0.008621423 -0.09628394 -0.064823456 0.021628758 -0.094108656 0.17593612 0.23502526 0.07773917
-0.104219474 0.09950402 -0.049387176 -0.13554254 0.29322216 -0.3298097 -0.20572397 0.032133244
0.07777676 0.08803977 0.24723902 0.014701823 -0.13264701 -0.3130448 0.19940633 -0.26340297
-0.09818088 -0.028581375 -0.011456121 -0.0589239 0.069604106 0.110522725 0.11033883 -0.3215666
0.22570914 -0.15432072 -0.014874906 0.025686733 -0.04842502 -0.17727774 -0.24954267 0.08314722
0.06573732 0.010347988 0.012787729 0.008877196 0.14884636 0.085364275 0.101906694 -0.137886
0.052018963 0.18436784 -0.1600851 -0.15684302 -0.103994824 0.20160301 -0.33352426 -0.058292687
0.0379566 -0.019778667 0.25002244 -0.15269148 -0.3257341 -0.0043755244 0.13243237 0.18148376
0.13504843 0.20163757 -0.15628882 -0.06395875 -0.07493607 0.050688136 0.07277751 -0.07871857
0.04186055 -0.020945234 -0.14423323 -0.16769685 0.069247425 -0.080922015 -0.28014928 -0.06916101
0.07779612 0.21518931 0.11915714 -0.08678966 0.14085138 0.23541273 0.0664256 -0.21363537
-0.02533755 -0.121554285 0.08921557 0.12905364 0.27980787 0.09552438 -0.024365906 0.21786632
-0.13566291 0.24166252 0.16339369 0.052412167 -0.14111252 0.009284357 -0.047219805 -0.16833161
0.20009165 0.22778401 0.16951323 0.32652044 -0.032251414 0.1370958 0.05620434 0.08242415
0.11332596 -0.040577248 -0.22521389 0.06501518 -0.11618532 0.16162111 0.055354763 0.24801677
-0.101331994 0.098081976 0.2664686 0.11087769 0.013295167 -0.06605925 0.15846162 -0.06304325
0.064591095 0.28291672 0.03961222 0.012229602 0.051477022 0.1405773 0.04209697 0.19549969
-0.00354771 0.14027792 0.20204207 0.024232827 -0.08005983 0.09964816 -0.09810047 0.0961124
0.18626958 -0.21468018 -0.14138156 0.1093757 -0.084635705 -0.1973125 -0.14046806 0.11067022
00000000: 924a 90be 6733 353e 3b70 4a3e dd33 3f3e
00000010: 804f cc3d a671 1c3d fe6e eebd c0ab e63b
00000020: 1502 563e 0037 4d3e cf91 873e 0944 5a3e
00000030: f010 62be d580 27bd f994 98bd 214a 67bd
00000040: 73d6 bd3d 0cda 1ebe d67b 423e faa0 643e
00000050: fade bfbe b1a8 9abb c84f 0abe 4bdf ca3d
00000060: 4fff 2c3e 2a15 1dbe cf4a 553e 0acb 463e
00000070: 844f c2bd 9dda 1bbe e820 8e3d 6f1a 99bd
00000080: 1b86 c73d 0819 00be 1d64 563e 3414 2abe
00000090: bf2d 79be d9ec c13d c1c7 bbbc d756 10bd
000000a0: 2270 7b3c 6dae a6be ace2 0cbd d7d3 f43c
000000b0: cb72 cf3c 9045 20be ba23 33be 0168 283e
000000c0: 060d 933d 7731 823c 2388 2b3e d6c1 b2be
000000d0: 3d62 ea3d c23c 193d e173 e83d 9ec1 203e
000000e0: 2bba 363e 48cd b0bc 831b 993d 4e3d 483e
000000f0: e516 623b cc5e ffbc c9b3 c03d ac1f 37be
00000100: 3fa9 89bb 9189 2e3e 2ae9 9e3e 0ae7 0dbe
00000110: 09d8 533d 6f40 f13d 0631 4e3e c403 adbd
00000120: dfb7 1f3e 5dc6 41be 60c3 ebbd 10d5 5d3e
00000130: 2978 d63d a178 49be b70c 813d 6714 d5bd
00000140: a890 863e 1db2 1ebe 5dca 7cbe 9ae1 04be
00000150: 612d 8abd 53f9 08be 61d2 8a3e efb3 433c
00000160: 461f a33e d6f0 0dbd 6d35 21bd 8723 b0be
00000170: c713 90bd f018 88bd d9e5 703e 206a b33e
00000180: 59b7 54be ce0d 4bbd abcf 3fbe 73e0 4d3d
00000190: 0904 d5bb d2c3 0abe 0920 27be d3b5 b23e
000001a0: de40 0d3c 8430 c5bd 29c2 84bd cb2e b13c
000001b0: 0abc c0bd 9928 343e 76aa 703e b735 9f3d
000001c0: 0571 d5bd c3c8 cb3d 354a 4abd aacb 0abe
000001d0: 3721 963e d1dc a8be 4ea9 52be 269e 033d
000001e0: 6c49 9f3d 324e b43d 3a2c 7d3e eadf 703c
000001f0: 9ed4 07be 6847 a0be 2c31 4c3e c1dc 86be
00000200: 0f13 c9bd 7d23 eabc 74b2 3bbc 305a 71bd
00000210: 998c 8e3d bd59 e23d 53f9 e13d 61a4 a4be
00000220: 4c20 673e 4006 1ebe e1b5 73bc fc6c d23c
00000230: 5059 46bd 4c88 35be 1d88 7fbe 1749 aa3d
00000240: 4aa1 863d 9c8a 293c 9f83 513c a971 113c
00000250: 2e6b 183e 77d3 ae3d 75b4 d03d fd31 0dbe
00000260: d611 553d ecca 3c3e 59ed 23be 759b 20be
00000270: 3dfb d4bd 0571 4e3e b1c3 aabe 50c4 6ebd
00000280: 6178 1b3d df06 a2bc f102 803e 285b 1cbe
00000290: 9fc6 a6be 8f60 8fbb 5a9c 073e e1d6 393e
000002a0: 234a 0a3e 147a 4e3e 2d0a 20be cefc 82bd
000002b0: 1578 99bd 5d9e 4f3d 600c 953d 3437 a1bd
000002c0: f875 2b3d 5795 abbc e0b1 13be b9b8 2bbe
000002d0: 98d1 8d3d 71ba a5bd ba6f 8fbe 4aa4 8dbd
000002e0: 9253 9f3d 965a 5c3e a908 f43d c7be b1bd
000002f0: 583b 103e 0910 713e 250a 883d 3bc3 5abe
00000300: b290 cfbc 74f1 f8bd a7b6 b63d a326 043e
00000310: fa42 8f3e 49a2 c33d 029b c7bc 5918 5f3e
00000320: 38eb 0abe 6176 773e ad50 273e 24ae 563d
00000330: cd7f 10be 6a1d 183c 8e69 41bd 1f5f 2cbe
00000340: d3e4 4c3e 3640 693e e094 2d3e b02d a73e
00000350: 0f1a 04bd d762 0c3e 8636 663d fecd a83d
00000360: 7117 e83d 5434 26bd 789e 66be ae26 853d
00000370: 92f2 edbd 0180 253e adbb 623d 1cf8 7d3e
00000380: 2687 cfbd 34df c83d 936e 883e d813 e33d
00000390: f9d3 593c 124a 87bd c343 223e d21c 81bd
000003a0: 5648 843d 76da 903e 6c40 223d ab5e 483c
000003b0: 92d9 523d 7ff3 0f3e df6d 2c3d 1231 483e
000003c0: b280 68bb 04a5 0f3e 1ee4 4e3e ec83 c63c
000003d0: 68f6 a3bd 5614 cc3d e6e8 c8bd 94d6 c43d
000003e0: 74bd 3e3e 1fd5 5bbe 54c6 10be 5e00 e03d
000003f0: 7c55 adbd 4a0c 4abe dcd6 0fbe 11a7 e23d

fc3.bias f4 [10]
-0.30821925 -0.6934049 -0.44226342 0.60545355 0.868731 0.015033277 0.14953819 -0.26061478
0.38217825 -0.21861984
00000000: eace 9dbe fc82 31bf 5a70 e2be 01ff 1a3f
00000010: 2865 5e3f 224e 763c 8a20 193e 4d6f 85be
00000020: deac c33e e1dd 5fbe
