trained_networks/unbalanced_net.pth (torch, 252085 bytes, 10 tensors)

conv1.weight f4 [6, 3, 5, 5]
00000000: 5f9a 203e dd48 623e b1b4 ea3e 8139 473e
00000010: 2c72 89be 4338 5c3e 2f59 d7be a63e 283e
00000020: a0ac 403f 32ba b93e af82 e43e 9307 b6be
00000030: 6bc3 0ebf 9db8 2c3e 6ede 343f 6032 e23e
00000040: e935 5d3e c8a2 04bf e704 26bf 7913 c13e
00000050: 7f2f 403d 8dea 8e3e 2df6 4f3e 3906 bdbe
00000060: 0497 9bbe a805 06bf 04ef e3be e1a1 7cbd
00000070: 6e65 d93a b3b4 663d 795d 64be 60a0 44bf
00000080: 66d1 b1be 4f4e 393e 0b78 f23d 9d63 813e
00000090: 0e25 f2be ec11 81bf 7ec7 9cbe 57d7 ca3e
000000a0: 7578 a63e 6755 b63e 2560 36bf c579 5ebf
000000b0: 4b5f 413e f328 003e 14fa cd3e 5a06 833e
000000c0: 8535 c7be 6f2a 98be 51c9 11bb d259 59bd
000000d0: b95f cc3e 0b2c 3e3e 0102 c8bd d7ae 053e
000000e0: f4b5 efbe aaec 3fbe a7e7 043f 4aa6 d93c
000000f0: 757d b33e a66f bdbe a6ef 63bf 736c 60b8
00000100: 049c e63e 3e68 ab3e fba7 d93e d686 d4be
00000110: 00eb 56bf 32a1 d63c 2e3a fd3d b380 f03e
00000120: 535c a43e a46d 74be 3835 f0be 41ce 293d
00000130: 5a1f de3e 49a3 293f 55fb e43e aa7f 4d3e
00000140: c665 093f 0760 d63e 73c8 fe3e 94a3 dd3e
00000150: a1a9 d93e 132f 74be da8d cabe 45a4 f1be
00000160: 844a aebe b616 9b3c 9564 1b3b 9b82 f7bd
00000170: a683 7dbd e2a2 393b 9d4e 273c 21d5 aabe
00000180: eaa0 91be 36b9 b1be 58cd 08bf 2778 b5be
00000190: 32aa 37bd cce3 953e af9f 403f 7821 673e
000001a0: c26a 0cbd d734 4b3e 5187 c83c 9d80 b9bd
000001b0: 2b9c b8be e4d1 f2bd 8422 2fbf 0b3d 75bf
000001c0: 2020 68bf 8df8 36bf 6cb5 d3be b0f4 a5bd
000001d0: 02d8 2cbb 4ea2 1c3e 8618 953d b4dc b23d
000001e0: 798d 8f3d e7eb fb3d a7c2 993e 4431 3b3e
000001f0: ca46 44be e1d6 10be 45a5 703e 6412 193f
00000200: 0adc 3a3e 0bcf b13e 715e 0d3e 6af7 393d
00000210: 8611 b63d 362a 41be 3e27 883d f8b4 a4be
00000220: 0222 26bf 580e 07bf 13e0 f3be fd8b acbd
00000230: a5aa d33d ffca 9f3e b454 d93e 0699 a03e
00000240: f4bb d93e 248c 93bd 073b 093e dcbc e03d
00000250: 6747 ef3d 09c1 c03d da28 47be 5aeb 433f
00000260: a7c0 cd3e 6304 bfbe efd8 3cbe 4a73 b03e
00000270: 713f 2e3f 3f2e 60bf 859a 4dbf e046 153e
00000280: a654 123f 2b10 c8be 7fa8 94bf 538c 863d
00000290: f2ef 953e cbc9 573e 0a5d 76bf 9d66 ccbd
000002a0: ed4e d33e 5429 c83d 8328 143e c040 333e
000002b0: 56f3 083f 1f38 903e cc50 93bc 195f 7fbe
000002c0: 59fc 133f 8e39 ff3d e0a5 abbe 3289 e9bd
000002d0: 8647 ee3e 6042 2b3f dec4 63bf 0604 0cbf
000002e0: bbf0 393e 05ec fd3e f5f1 01bf 7026 8ebf
000002f0: a469 7a3e a1ed cb3e 7556 2ebd a81e 70bf
00000300: 3efb 66be 1749 1a3f 8dbe 883e 92d7 8dbe
00000310: 5e32 e6bd 2a23 693e d241 613c 1a59 9ebd
00000320: 49cc e3be da1b a43e d4e2 533e dc2e 34be
00000330: a006 2cbe 6ab6 173e ee25 313f 6ba0 1cbf
00000340: d232 65be caeb 113e 2d1d fe3e 9d2b 54be
00000350: aba2 45bf 23e1 da3e b0ef 123e c9e3 023d
00000360: ed6c 22bf 01ad 7b3d 5b1e 173f 8ef1 0abe
00000370: f62e 95be d9bf 29be ca38 f43e 99a0 ac3d
00000380: 019b 78be 8281 2bbe edfc 0b3f 729c 36bf
00000390: 128c d13e a3df 10bd c63e 98be 8a8b 7d3f
000003a0: f586 b6bf 9712 a03e 6b7b 683e d973 f9be
000003b0: a649 973f 4922 4dbf 8881 9cbe 1a85 5b3e
000003c0: f22c 05bf c2a7 213f a703 0abe b291 8a3d
000003d0: 61f6 1e3e 52b0 ef3e b132 c13e 7fd4 1cbf
000003e0: b550 a53e b475 d23e 71a3 30be 50f9 e83e
000003f0: 613c 33bf 6846 e93e 5c21 073c b20a f03b
0.15683888 0.22098108 0.45840982 0.1945553 -0.2684492 0.21505837 -0.4206023 0.16430148
0.75263405 0.36274868 0.44630954 -0.35552654 -0.55766934 0.168673 0.706519 0.44179058
0.21602596 -0.51810884 -0.6485123 0.3771017 0.046920296 0.27913323 0.20308752 -0.3691881
-0.30388653 -0.5235238 -0.44518292 -0.061677817 0.0016586015 0.056324672 -0.22301282 -0.7680721
-0.3473007 0.18096279 0.11839303 0.2527131 -0.47293895 -1.0083594 -0.3062095 0.39617416
0.32513776 0.35612032 -0.71240455 -0.86904556 0.18884008 0.12515621 0.40229857 0.25590783
-0.3890802 -0.29719874 -0.0022245238 -0.053064175 0.3991678 0.18571489 -0.09766007 0.13054977
-0.46818507 -0.18742624 0.51915973 0.02656855 0.35056654 -0.36999243 -0.8903755 -5.3506763e-05
0.45040905 0.33477968 0.4251097 -0.41509122 -0.8395233 0.02619991 0.123646125 0.4697319
0.32101688 -0.2386995 -0.46915603 0.041456465 0.43383294 0.6626478 0.44723 0.20068231
0.5367092 0.41870138 0.49762306 0.43288863 0.4251223 -0.23846082 -0.3956135 -0.4719564
-0.34041226 0.018931728 0.0023711075 -0.12085458 -0.061893128 0.0028325845 0.010211614 -0.3336573
-0.2844308 -0.34711617 -0.5343833 -0.3544323 -0.044840045 0.29275358 0.7524366 0.22571361
-0.0342815 0.19844376 0.024478586 -0.09057734 -0.36056647 -0.1185644 -0.6841204 -0.9579627
-0.9067402 -0.7147301 -0.4134935 -0.08103311 -0.0026373868 0.1529629 0.07280068 0.08733502
0.07009406 0.12300854 0.3003132 0.18280512 -0.19167629 -0.1414447 0.23500545 0.59793687
0.18248 0.34728274 0.13805558 0.045401968 0.08890061 -0.18863758 0.0664811 -0.32169318
-0.6489564 -0.5275626 -0.47631893 -0.08425138 0.10335282 0.3120956 0.42447436 0.31366748
0.4252621 -0.07204464 0.13401423 0.10973522 0.11683541 0.094118185 -0.19449177 0.76530993
0.40186045 -0.37308034 -0.18442129 0.3446296 0.68065554 -0.87570566 -0.80313903 0.14577818
0.57160413 -0.39074835 -1.1613921 0.065697335 0.29284626 0.21073072 -0.96235716 -0.099805094
0.41271153 0.09773508 0.14468579 0.17505169 0.534963 0.28167817 -0.017982863 -0.2493862
0.57806927 0.124621496 -0.3352499 -0.11403121 0.46538943 0.66898155 -0.8897227 -0.5469364
0.18158238 0.4959413 -0.5075982 -1.110548 0.24454361 0.39829734 -0.04256292 -0.9379678
-0.22556779 0.60267776 0.2670788 -0.2770353 -0.112400755 0.2276732 0.013748603 -0.077318385
-0.44491795 0.320525 0.20691997 -0.17596 -0.16799402 0.14815679 0.691985 -0.6118228
-0.22382668 0.14250103 0.49631634 -0.20719762 -0.77201337 0.4274989 0.14349246 0.031955514
-0.6344746 0.061444286 0.59030694 -0.13568708 -0.2913739 -0.1657709 0.47699577 0.08429069
-0.2427788 -0.16748622 0.5468281 -0.71332467 0.40927178 -0.035369527 -0.29735392 0.99041045
-1.4259936 0.31264183 0.2270333 -0.48721197 1.1819351 -0.8013044 -0.30567575 0.21437493
-0.52021706 0.63146603 -0.13477956 0.067660704 0.15523674 0.4681421 0.37733987 -0.61261743
0.32288137 0.41105425 -0.17249848 0.4550271 -0.70014006 0.45561528 0.0082477 0.0073254937

conv1.bias f4 [6]
00000000: eca3 53bf 098c 49bf 97b8 12bf 1945 69be
00000010: 5cb2 5bbf 70cf debe
-0.82672 -0.787293 -0.5731291 -0.22780265 -0.8581903 -0.43517637

conv2.weight f4 [16, 6, 5, 5]
00000000: c806 533d c7da 5abe 3072 3cbd 1a38 00be
00000010: 52e8 21be aa71 0cbe c329 2cbe 7d7d 8b3e
00000020: 3573 943c fd11 98bd 65cf a3be 5812 13be
00000030: 820a 073e f317 ca3d 9b41 bf3c c745 c53d
00000040: af97 ac3d 7d9d 153e 1af9 d23d 310e 66bd
00000050: a677 f03d 25dd 543e bdfa d93c 855e 36bd
00000060: 7cb3 01be ba4b edbd b77a d83c bda6 3dbd
00000070: 530d b03c b21e bcbd e6bb 84bd f100 85be
00000080: 2f8c 60b9 cc4e 263e bed6 293d 3b04 dabe
00000090: 90c9 80be 84c3 1f3b 57d8 27bd 36bd e5bd
000000a0: 9496 c7be 2a12 8dbe d77c d0bd ff63 6a3d
000000b0: 1bd0 113e 3e6d acbe a3c3 30be a734 8bbd
000000c0: 8288 8c3d 4d8e 1abe ad55 b03e 34ac d53e
000000d0: ed74 51bc 8654 b2bd c6af 91be b112 7e3f
000000e0: 608c d53e fd35 6cbd 44a3 c7be 4b99 a1be
000000f0: a11c 4e3f eb8b 38bd d08e afbd e1a3 bfbe
00000100: 4c9f b6be 5920 2e3e 0e01 7bbc 8f72 50bd
00000110: ec3c 05bd b543 4fbd 5a07 7ebe 421e 22be
00000120: d82d 2bbd 42fb 52bd 76da a0be 2a32 d73d
00000130: dff7 d1bd 77a5 20be e66f babd f214 64be
00000140: 9dbf 11be 7991 e23c 0d39 39bd edf6 6abc
00000150: c1b2 8ebd 7f36 5ebd 6f82 673c 7c7b 75bc
00000160: af98 333d f7a3 3ebd 169b e73c cf24 d93d
00000170: e1d2 ea3d dc83 0cbc 54b4 fcbc f8b1 453e
00000180: bce4 363d 84ec 223c 96b0 82bd 5fd8 473d
00000190: e85b e7be 14ea 87bd 9e46 b43e e095 ab3e
000001a0: 3415 0b3e bad8 2b3b 0363 0e3c 872b 0bbe
000001b0: dd94 08bd 396e 9abd 47b1 863c 3d11 07be
000001c0: fb7f 98be 03e5 0abe 003a 4fbd d7d2 09be
000001d0: 9769 99be e166 ebbd 520b 01bd ecd4 da3c
000001e0: c4cb 8fbc e324 673d d400 6a3d 13fe 053e
000001f0: 62b7 a73c 43a9 0bbf d778 afbc 0cc7 363e
00000200: e418 c33d 942b 933d ed31 593d a02e e63e
00000210: 6fbc 93bc f8fb 10be e364 03bd 7d03 c13e
00000220: 4431 b2bd 247c 09be 267c 44be f9d0 e5bc
00000230: 58c7 163e cc90 28be 7c3a f23c d68f 1bbe
00000240: 289b d63d be38 423c ca39 80be 835c 20bd
00000250: c777 eb3a 2391 17be 9bce 81be 2c35 4dbe
00000260: 576d 873c 55bd 563e cbb5 343e 1e30 7abe
00000270: 5cf8 86be cfed 07be 9af6 483e e175 9cbc
00000280: ff44 5cbe bb98 a5bd 7428 35be e401 b93d
00000290: adf4 02be 6dc0 18bd 9868 763d c5cb 983d
000002a0: 5bda 1a3d d632 aebc 03af 573d 340d c23b
000002b0: 09d1 0cbe 656b bc3d f9b7 a1bd d81d 0e3e
000002c0: 0ec0 81bd 4ec0 123e ee7f cebc 6795 43be
000002d0: d080 383e 2f94 213e 6657 d63c f9d5 42be
000002e0: 71b7 42be 6528 c53e e618 a6bd a1cd 84be
000002f0: 49a0 95be ee44 88bd d11f 113f bd3d 6a3e
00000300: 0795 51be 1eeb dabe a001 37be c4c1 433e
00000310: 40c6 363e ef73 b4be e88c f6be d6ac b9be
00000320: 0d7c d5be ad47 863d d17f 993d 6578 b7bc
00000330: b4de 523e 43e0 9dbe 379a 013e 1a41 533e
00000340: 515a c6bd bded 55ba fdaf 49be 45ff 383d
00000350: 81bb 373e cb52 bbbe e9f1 b83c e954 41be
00000360: b321 993d 31b2 fdbd c5f0 493d d058 0dbd
00000370: 768a 0ebe e025 af3d 0b45 b4be 8187 ea3e
00000380: 55a4 bdbb ea81 a6be 34ae c6be 8137 7dbe
00000390: 2c98 983d 14d4 f43e ad6b 9bbe fab6 40be
000003a0: 6c45 47be 9355 f63e 821a 6b3e 4dc6 fbbe
000003b0: 3e27 01be 48f2 3fbe 409e 173f db81 4e3e
000003c0: 9bf0 92be 0ffe cbbb b216 6cbc 1753 423f
000003d0: eeaa 023d 11ed c3be 6948 f9bd 5ef5 11be
000003e0: dabd f33e c9a7 14bd 391f f23d 778c b6bd
000003f0: 2180 00be 5ab4 80be 1333 29be 87fe 873e
0.05152014 -0.2137252 -0.046007335 -0.12521401 -0.1581128 -0.13715234 -0.16812806 0.27244177
0.018121341 -0.07425306 -0.31994167 -0.14362466 0.13187602 0.09867849 0.023346713 0.096324496
0.08427369 0.14610858 0.103014186 -0.056165878 0.11741571 0.20787485 0.02660882 -0.044523735
-0.12666124 -0.11586709 0.026425702 -0.046301592 0.021490728 -0.09185542 -0.06481151 -0.2597728
-0.00021414527 0.16240996 0.04146456 -0.42581353 -0.2515378 0.002437801 -0.040977802 -0.1121773
-0.3898207 -0.2755292 -0.10180061 0.05722427 0.14239542 -0.33677095 -0.1726213 -0.06797152
0.06861974 -0.15093346 0.34440365 0.41732943 -0.012784225 -0.08707528 -0.28454417 0.9924727
0.4170866 -0.057668675 -0.3899175 -0.31562266 0.80512434 -0.04505531 -0.08572161 -0.37429717
-0.3566841 0.17004527 -0.015320076 -0.0508905 -0.032528803 -0.05060168 -0.24807492 -0.15831855
-0.041791767 -0.05150915 -0.31416672 0.10507615 -0.10252356 -0.1568812 -0.09103374 -0.22273615
-0.14233251 0.027657257 -0.045220423 -0.014341098 -0.06967688 -0.05425119 0.014130219 -0.014983054
0.043846782 -0.046543088 0.028272193 0.10602724 0.11466003 -0.00857636 -0.030847706 0.19306171
0.04465173 0.009944085 -0.06381337 0.048790332 -0.45187306 -0.06636444 0.35210127 0.33512783
0.13582307 0.0026221708 0.008690598 -0.13590823 -0.033345092 -0.075405546 0.016441954 -0.1319017
-0.2978514 -0.13563924 -0.050592422 -0.13459335 -0.2996337 -0.11494232 -0.031504937 0.026712857
-0.017553218 0.056431662 0.057129696 0.13085203 0.020473186 -0.5455515 -0.021419926 0.17849368
0.09526232 0.07186046 0.05302613 0.44957447 -0.018034188 -0.14158618 -0.032078635 0.37697974
-0.08700803 -0.13426262 -0.19187984 -0.028053747 0.14724481 -0.16461486 0.029568903 -0.15191588
0.104788125 0.011854349 -0.2504409 -0.039150726 0.0017964774 -0.14801459 -0.2535294 -0.20039815
0.01653163 0.20970662 0.17647474 -0.24432418 -0.26361358 -0.1327431 0.19625321 -0.019099178
-0.21510695 -0.08085772 -0.17691213 0.09033564 -0.12788649 -0.037292887 0.060158342 0.07460741
0.037805896 -0.021264475 0.05265714 0.005921984 -0.13751616 0.092001714 -0.07896418 0.13878572
-0.0633546 0.14331171 -0.025207486 -0.19099961 0.18017888 0.15779184 0.026164722 -0.19026937
-0.1901529 0.3850738 -0.08110218 -0.25938132 -0.2922385 -0.06653772 0.56689173 0.22875114
-0.20467006 -0.42757505 -0.17871714 0.19116884 0.17849064 -0.352447 -0.48154378 -0.36264676
-0.41696206 0.0655664 0.07495082 -0.022396276 0.20592767 -0.3083516 0.12656485 0.20630303
-0.09685195 -0.0008160731 -0.1969604 0.04516532 0.17942621 -0.36586604 0.02257629 -0.18880047
0.07477131 -0.12387503 0.04930188 -0.034508526 -0.13920006 0.08552146 -0.35208926 0.45806506
-0.005787412 -0.32520992 -0.3880478 -0.24728204 0.074508995 0.47818053 -0.30355588 -0.188198
-0.19460076 0.48112163 0.2295933 -0.4917473 -0.12612626 -0.18744767 0.59225845 0.20166723
-0.28699192 -0.0062253545 -0.014409708 0.75908035 0.031901293 -0.38266805 -0.12172014 -0.14253756
0.47605783 -0.036292825 0.118223615 -0.0891351 -0.12548877 -0.25137597 -0.1652339 0.26561376

conv2.bias f4 [16]
00000000: 72ab 80be ba8e 97be 7b6d d9bd 9ebf c03e
00000010: 9d6d 0cbf 157f cebf 3147 623f ca6c 8e3f
00000020: 5c9e 2a3f 5a0c 223f f565 53bf 2be0 1dbf
00000030: 8e2b 69be e04a 1240 9ab1 403e da9b 02be
-0.25130802 -0.2960108 -0.10616585 0.37646192 -0.54854757 -1.6132532 0.8838988 1.112695
0.6664789 0.63300097 -0.8257745 -0.6167018 -0.22770521 2.28582 0.1881775 -0.12754765

fc1.weight f4 [120, 400]
00000000: c20d 17be 4893 66be 870d e83b afb4 0d3d
00000010: 80bc 82bd 83aa 13be 9376 c2bc 4436 92bc
00000020: b186 10be af19 91bd c6f3 48be afb0 2f3c
00000030: f755 31bd 8ea5 f33c b809 ea3d e96a 433d
00000040: eb23 8f3c 6687 2d3c bf77 ce3c d52d 6cbd
00000050: 189b dc3d 4e74 9f3d 4d22 a53c 3d8d 24bd
00000060: 886d 2bbd 184d 0c3d c902 4a3c 03f4 1a3e
00000070: 281c d23b 9d9f b4bd 7ea5 dabd 4821 293d
00000080: 8ad1 423d 2872 a33d bf10 c5bc 01dc edbc
00000090: 4cd7 73bc 2d58 61bb 7c90 d23d 7280 ca3c
000000a0: 5d43 3bbd 5efb 4dbe c500 b3bd 2bb6 34bd
000000b0: e204 97bc aca5 283e d79a a8bd 393a 2d3c
000000c0: 08d6 e23d d1e7 a23c a249 bd3c 2cd2 61bd
000000d0: 963b 0dbd 3634 70bd 9847 28bd d262 57bd
000000e0: d520 b33c 9f96 8e3d eed2 debd 9a6c 07be
000000f0: 0fe6 eebc 0369 48bd 7a73 d9bd 79c3 6bbd
00000100: 4fc2 eebc 8c00 ab3c 9d26 0a3e d303 913d
00000110: 4df0 48bd 50f2 693d 4c9c 443e c6f2 023e
00000120: e859 ac3d 8cdd d7bd 39e9 01be 5935 27bd
00000130: 13c4 32bd 4eb7 813b 7322 033d 86e1 5fbc
00000140: c9b3 1dbe 74c2 93bc 6e71 4cbd 05e3 edbd
00000150: fed7 01be f031 8abc 37c5 3a3d 7837 af3d
00000160: 6a66 983d 7f1c 93bd 65e9 a9bc cd9d 073d
00000170: 16df f53d f8c5 693d e825 413d 7b3c e1bd
00000180: d73f 16be 8157 56bd ec46 9ebd 4578 c6bd
00000190: 0449 e0bc f380 093c ba50 d63d 9e59 b9bd
000001a0: eca6 2fbe 0fdf 9abd 27dd 143d a920 323d
000001b0: abd4 dfbd 747d 5ebe 0864 14be eb4c 5dbd
000001c0: c12d 9bbd 3fea 2abd 6d00 33be 37a2 9cbc
000001d0: 1a3b 65bd c79e 9ebd dfa7 68bd 1444 44be
000001e0: 85ea 92bd 351a 8b3a 7d7e 06be c6c9 22be
000001f0: 8424 30be 01bf febd 90a4 98bc 7a32 873d
00000200: 6f05 4bbd b1a4 b4bd 6100 f53d fb06 223d
00000210: 8fec b03d 0101 71bd 436c ae3b 39f3 313c
00000220: 86ba 573d 126e cdbb 6040 55be 204f c3bd
00000230: aa45 ff3c 1e4a 88bd 1553 febc ced1 1ebe
00000240: cd94 acbd e6e0 1c3d 0a3e 18bd 4eac e8bd
00000250: c9dd a9bd db5a 4d3d 0359 aa3c 95b0 f13c
00000260: de17 903d 32a3 bf3d ca9b 9e3c 4fa0 113d
00000270: 83f2 db3c 5898 b13d a9f4 8a3d 43bd be3d
00000280: db00 e7bd 0752 763c e1d3 543d 9ae6 3ebe
00000290: abc7 97bc 7ead 39be 0ae1 16bd a7d9 1dbe
000002a0: 3249 0abe f897 d33c 060d 85bc 62f8 07bb
000002b0: 3558 14be c8b1 39be 53f3 963d 180c e03c
000002c0: 37ab 73bc 03b4 37bd b1be 10bd e30b 9bbd
000002d0: be2f 8f3d 165f 48bd 0c93 873d 807a 503e
000002e0: aca7 983b 314c 3fbe 8390 93bd 03dc 2bbc
000002f0: a370 d43d f96f afbc 91f2 35be 36ab 39bc
00000300: cebf 253d 981a 3bbd f6d8 623c 3750 8a3c
00000310: bd44 463d 9f98 213d 6a44 e73d d289 d53c
00000320: 16b9 49bd 3ad1 f8bd 42df d2bd b07d 28be
00000330: 6017 63be 97e4 ac3c 7a1c debd 13e1 33bd
00000340: 2d2e 093d 3234 9abc c1dc 0c3d 7af0 cc3c
00000350: ab00 f23d cb65 073e 033e 1d3c 74f2 033d
00000360: 945e b03d ca2e 4f3d 26ee 763d 2716 0a3d
00000370: 8a7c 40bd 0b04 56bd 0c27 a8bd 9b0d 90bc
00000380: 417f 393b 043f b1bd 0f2d af3b 09d0 dd3c
00000390: f613 533c ae10 ad3c 8a23 08be d7b4 3bbd
000003a0: d63b c63d 26f0 4d3d 8f6a 0dbb e76c 0d3c
000003b0: c433 793b 6044 ce3d 8b05 043e 4d50 52bd
000003c0: a5a7 483d 57e8 f93d 1c12 f23d 0fc0 4abc
000003d0: f056 14bd 89c9 b6bc 823d 113e 4489 0e3d
000003e0: d739 9c3d 1313 8a3d 78b4 27be c66c 05be
000003f0: 5ce1 debd 1f9c 22be 2557 1bbe ab09 33be
-0.14751342 -0.22517121 0.0070816907 0.03459614 -0.0638361 -0.14420514 -0.023738181 -0.017848141
-0.1411388 -0.07084977 -0.19624242 0.010723277 -0.043294873 0.029742029 0.11427635 0.04770938
0.017473182 0.0105913635 0.025203584 -0.057660896 0.10771769 0.07785855 0.020157957 -0.040173758
-0.041852504 0.03425321 0.012329766 0.15132146 0.006412048 -0.08819506 -0.106760964 0.041291505
0.047563113 0.07980758 -0.024055837 -0.02903557 -0.014882874 -0.0034384832 0.102814645 0.02471945
-0.04571854 -0.2011542 -0.08740381 -0.04411904 -0.018434945 0.16469449 -0.08232658 0.010572963
0.110759795 0.01988593 0.0231064 -0.055132076 -0.034480654 -0.058643542 -0.041083902 -0.052584477
0.021866241 0.069623224 -0.108800754 -0.13225022 -0.029162435 -0.048928272 -0.106177285 -0.057559464
-0.029145388 0.020874284 0.13491292 0.070808075 -0.049057294 0.057115853 0.19200248 0.12787923
0.08415586 -0.105403036 -0.12686624 -0.04082236 -0.043644022 0.003958619 0.032015275 -0.013664609
-0.15400614 -0.018037058 -0.049912862 -0.11615566 -0.1268005 -0.016869515 0.045598235 0.08555502
0.07441409 -0.071831696 -0.020741174 0.033109475 0.12005441 0.057073563 0.04715529 -0.10997864
-0.1467279 -0.052329544 -0.07728371 -0.09690908 -0.027378567 0.00839256 0.10464616 -0.09050296
-0.1715352 -0.07562076 0.03634372 0.04348818 -0.10929235 -0.21727544 -0.14491284 -0.054028433
-0.07577086 -0.0417273 -0.17480631 -0.019120319 -0.055964567 -0.07745128 -0.05680072 -0.19166595
-0.07173637 0.0010612669 -0.13134189 -0.15897283 -0.1720143 -0.12438775 -0.018633157 0.066014245
-0.04956573 -0.08820475 0.11962963 0.03955744 0.0863887 -0.058838848 0.0053229644 0.010861211
0.052668117 -0.006269225 -0.20825338 -0.09536576 0.031161148 -0.06654762 -0.031045476 -0.15509722
-0.08426819 0.038300417 -0.03716854 -0.113609895 -0.08294255 0.050135475 0.020794397 0.029503146
0.07035802 0.09357299 0.019361395 0.035553273 0.026849037 0.086716354 0.067849465 0.093134426
-0.1127946 0.015034205 0.051959876 -0.18642655 -0.018527826 -0.18132588 -0.036835708 -0.15415059
-0.13504484 0.0258293 -0.016241562 -0.0020747413 -0.14486773 -0.18134224 0.07370629 0.027349517
-0.014872364 -0.044849407 -0.035338107 -0.075706266 0.06991528 -0.048918806 0.06619844 0.2035923
0.00465866 -0.18681408 -0.07205298 -0.010489467 0.10373046 -0.021415697 -0.17768313 -0.011332324
0.040466122 -0.04567966 0.013845673 0.016883953 0.048405398 0.03945219 0.11292346 0.026066694
-0.049248777 -0.12149282 -0.10296489 -0.16454196 -0.22176886 0.021105094 -0.10845275 -0.04391582
0.033491302 -0.018823717 0.034390215 0.025017012 0.11816534 0.13222425 0.009597304 0.032213643
0.08611789 0.05058173 0.06028571 0.033712532 -0.04699377 -0.05224995 -0.082105726 -0.017584613
0.002830461 -0.086545974 0.0053459476 0.027076738 0.012883177 0.021126118 -0.13294807 -0.04582676
0.096793815 0.05027785 -0.0021578406 0.008631921 0.003802524 0.10071635 0.1289274 -0.051346112
0.048988003 0.122025184 0.1181986 -0.012374892 -0.036215723 -0.022312896 0.1418362 0.034798875
0.076282196 0.06741919 -0.16377437 -0.13029775 -0.10882828 -0.15879868 -0.15169962 -0.17484157

fc1.bias f4 [120]
00000000: f214 fd3d 8ed6 4d3c 2d29 673e 2d94 8b3c
00000010: fa28 30b9 f547 853d 1517 ed3d e92b 9abe
00000020: 750b 443a beb0 b0bd 4150 623d 315a d23d
00000030: 4db9 bd3b 7b5d 693c c53e 673d 98eb cf3d
00000040: 270f f13d 92aa 3abd 98ce 143d 7634 853e
00000050: 7117 1a3e 5dcb 5a3e 0dbf e139 9771 f9bd
00000060: c47f 1d3e 151a 6fbd 8fef f23c 5571 bd3c
00000070: 0d98 ba3d 4af9 3ebd 79a8 d53d 08ba dcbd
00000080: 1b76 0d3e 47ca ac3b b582 0a3e d844 a73d
00000090: f136 a53e 1e5c 1a3e f0f0 1b3e 5053 6ebd
000000a0: aaa9 82bc 684e d13d b31a c23e 7a52 47be
000000b0: 9f5f debd 9f8d d4bd 5f4f 87bb ce89 923d
000000c0: dea6 54bd 55eb d83c 9c1f b03d a10e 82bd
000000d0: 86ac 353e fbc7 c53b 98aa 36bc 8304 b03c
000000e0: 041f 0a3e 4be8 89bd 5617 07be d759 c73e
000000f0: c685 2d3e d6ac 82be fa3b 453e 95bb dabc
00000100: cbf8 883d 2d22 e43d a899 f63c b289 dabd
00000110: f85b d03d fff1 4dbd 5d10 56bc 253b 0a3d
00000120: eed7 3b3c 06c4 30be b2ba 63bd 2040 013e
00000130: 627b 7bbe fc67 a53d 1c68 4f3e 67dd b83c
00000140: c1ac 87bc 4e35 d3bc 824b 2abd 2595 cb3d
00000150: a5f2 7abc 2a53 9e3d caa1 863e d351 6b3d
00000160: 2f78 14be 8ea6 75be 7cac acbe afea ac3c
00000170: 003c c7bd 3d6d d5bd 8f0f f43d 2c5a 083e
00000180: d7fe 1a3e d82f e63d 83ca d8bc 3107 993d
00000190: ec4e 333c 97ff d43c 1851 183e 9958 843d
000001a0: 160f d6bc 1196 b73c 928f 48bd 0783 92bd
000001b0: d352 9b3d 54bd 35be 2363 80bd a6c3 a4bc
000001c0: 10ea c83e c997 733d 5002 adbd e6ac 94be
000001d0: bb17 693e 5b29 893e 6c9f 793d 43ce a3bc
0.123575106 0.012563361 0.22574301 0.01703843 -0.00016799933 0.06507865 0.11576668 -0.30111626
0.0007478514 -0.08627461 0.055252317 0.10271109 0.005789912 0.014243479 0.056456346 0.10152358
0.11770468 -0.045572825 0.036329836 0.26016587 0.15048005 0.2136664 0.00043057688 -0.12179869
0.1538077 -0.058374483 0.029655246 0.02312533 0.09111033 -0.04662446 0.10432524 -0.1077767
0.13814585 0.005273137 0.13526423 0.08167428 0.3226848 0.15074202 0.15228629 -0.05818492
-0.015950043 0.10220033 0.37910995 -0.19465056 -0.10858082 -0.103785746 -0.004129335 0.071551904
-0.05191695 0.026479403 0.08599779 -0.063504465 0.17741594 0.0060358024 -0.011149071 0.021486526
0.13488394 -0.067337595 -0.13192496 0.3893573 0.16945562 -0.25522488 0.1926116 -0.026700774
0.066880785 0.11139331 0.030102566 -0.106707945 0.10173792 -0.050279614 -0.013065425 0.03374781
0.011465056 -0.17262277 -0.05559797 0.12622118 -0.24558786 0.08076474 0.20254558 0.02256651
-0.016561868 -0.025782254 -0.041575916 0.099405564 -0.01531664 0.07730706 0.2629531 0.05745108
-0.14498971 -0.23989317 -0.33725345 0.021108 -0.09728241 -0.10421226 0.1191703 0.13315648
0.15136276 0.11239594 -0.026463753 0.07472075 0.010944109 0.026000781 0.14874685 0.06462211
-0.02613024 0.022410424 -0.048965044 -0.07153898 0.07584157 -0.17748004 -0.06268909 -0.020112824
0.39241076 0.059470925 -0.08447707 -0.2903816 0.22762959 0.26789364 0.060943052 -0.019995814

fc2.weight f4 [84, 120]
00000000: fd4a 62bd dbb5 ba3d 29d4 38be 4dbc 2dbd
00000010: db2b dabd 3c4b 56bd d62e 813b 5416 2cba
00000020: 86fb d2bd 210f 4fbd bbe9 c9bd cba6 1cbc
00000030: d80d d9bb d295 843c bb59 9fbd b7f4 91b9
00000040: fa0a 04be 5adf c8bd 8fda 333d fe58 c93d
00000050: 368a 5dbd 559e b8bd d1e7 243d 163d b3bc
00000060: 5a68 94bd eb91 40bd c84a 443c 6a8a 8a3d
00000070: 323f 4d3d f84c b3bd 321d 82bd 215a d0bb
00000080: c901 06bd 5b0c 08be 48ee 4abc e5ca 443d
00000090: b522 57bd e77b 393d cc5b b83d 5e4e f93c
000000a0: a556 153c ec72 613d 6bc8 a6bd 264e e2bc
000000b0: 13ff f1bd cd67 fcbd f6cc 483d 5496 14bd
000000c0: cd06 ab3d d20c 16be 98ab a3bd a920 8dbd
000000d0: 79da 54bc a585 903d 7716 d2bd 4ba5 81bd
000000e0: 41c6 9fbb 7c30 60bc 8096 47bc c673 a6bd
000000f0: 6fb5 293d e429 acbd d141 bfbc 4fe6 6bbd
00000100: 6303 79bd 8798 02be 7013 5fbd 9dbe 163d
00000110: a2ce 5fbd f908 e8bb 68b1 d6bd 45c9 353c
00000120: a226 3b3c d92f 7f3d 44ae d3bc a99b d1bd
00000130: bdf5 72bd 0f2a ee3d d5c0 aebb c046 ca3d
00000140: d65c f03a fd3a 303c 710d dfbc 957c 013c
00000150: 5c87 75bd 581d 1fbe 7fa7 b13d b8a4 ce3b
00000160: 5673 493d 2fa8 74bc e1a8 66bd 1ecf 7a3d
00000170: 16ae 32bc c69b cabc 64cd ae3d 4840 edbd
00000180: ea11 a0bc 66af 5b3e b385 e3bc c161 ebbc
00000190: d458 36bd f049 d1bb 23db bebd 82a9 233d
000001a0: 4e51 f2bd 0ab9 07be d786 3e3d 2388 50bc
000001b0: 035e a1bd 19d2 efbd 6c7d a3bd a442 603d
000001c0: e80a 143e 15e1 bcbd 93e5 f5bd ea8f 1cbd
000001d0: e436 6c3d 8c46 9f3d 4437 013b 81a8 d7bd
000001e0: 93e6 2ebd 4083 fdbd 748d fcbc 6235 a8bd
000001f0: 5644 013c 182f e13d 9ea1 c2bd 6751 2abe
00000200: ec0b 7e3d 0a9b f33d 491d 9ebc 5cb2 52bc
00000210: d6ec 1abe ff92 79bc c20c bbbd 620e c1bd
00000220: 0755 b5bd 936a fa3c e12b aabd b677 16bd
00000230: 5144 3a3d f405 a8bc e548 c3bc d979 c039
00000240: 23b6 afbd 8a12 c43d 1ad0 60bc 6c70 09bd
00000250: 927c 45bd 595c 903d eb88 c73c 2505 2d3e
00000260: 1f4a 313e 499c 86bd ff1f e63d b7b1 92bc
00000270: b640 6fbb a0ed aebc 2ca7 923c 82b2 48bd
00000280: 1ac1 03be 88d9 0b3d dbc2 18be 716c 693d
00000290: d48a b3bc 7ee4 16bd 6b3b 7f3d 752d 143d
000002a0: 8e8d 4a3b 4cc8 1d3e ba58 f2ba 2519 8c3c
000002b0: 2b2d a1bd 8feb a5bd acbb 02be 425a 2dbd
000002c0: 0809 ddbb 6bce 4abe b583 1bbd 6229 f4bd
000002d0: 0a92 6d3c 2b71 e2bd 898d 34bd 3b51 85bd
000002e0: 8e5a 6dbd 9d9f 8fbd 996c 9f3d c1b4 f4bd
000002f0: c4b5 74bd 4568 40bd d81e 57bc eb73 57bd
00000300: 9bd0 dabd 4cf0 d03d 2289 5e3d 888f 9b3c
00000310: 8bfb 0d3c 9173 f43c 300c eabc c0ab f23d
00000320: b3c0 ff3c e8f5 2fbd 72e4 843d 747b 95bd
00000330: 9168 463d 8d8d d03d e37d 5e3c 6493 4d3c
00000340: 7be2 9dbd 7727 2cbc 0f25 1cbe e823 74ba
00000350: ffae 363d da31 8abe 4191 4ebe 5eab 433e
00000360: 5b7e 543d 88eb 5ebc d060 98bd 9bd8 203c
00000370: 2391 8dbd a081 65bc e5b8 96bd 4228 7b3c
00000380: 323a 9c3d bd58 06be 06f8 4a3d 5b21 a7bd
00000390: e4e9 b2bd 6648 b8bd a6dc e4bd 223a c0bd
000003a0: 1746 9b3d af0d 8ebd 19a3 34be de18 fd3d
000003b0: 09bc 2ebe 234b ecbd 5129 123e 9be8 8a3d
000003c0: 99a0 163e 6328 9abd 7f10 bdbc b548 123e
000003d0: 0426 4ebd cae4 0d3e 437f 613d 3f55 493d
000003e0: 6549 83bd 6176 e7bd d790 b53d dab4 debd
000003f0: d0dd 2c3d 6f0c 1a3d dfee aebd fd49 b6bd
-0.055247296 0.091167174 -0.18049683 -0.042415906 -0.10652896 -0.052317843 0.003942351 -0.00065646064
-0.103018805 -0.050551537 -0.09859034 -0.009561251 -0.0066239648 0.016184721 -0.077807866 -0.00027838882
-0.12894812 -0.09808226 0.043909606 0.09831427 -0.054086886 -0.090145744 0.04026014 -0.021879714
-0.07246466 -0.04701416 0.01198072 0.06764682 0.050109096 -0.08754915 -0.06353225 -0.0063584005
-0.032716546 -0.13285963 -0.012385912 0.048045058 -0.052523334 0.045284178 0.09001884 0.030432876
0.009114896 0.05504124 -0.081436954 -0.027625155 -0.1181623 -0.12324486 0.04902359 -0.036276177
0.083509065 -0.14653328 -0.07991713 -0.06890995 -0.012991541 0.07056741 -0.10258191 -0.06330355
-0.0048759286 -0.013683435 -0.012181878 -0.08127551 0.041432794 -0.084064275 -0.023346813 -0.057592686
-0.060794245 -0.12753497 -0.054461896 0.036802877 -0.05464042 -0.0070811477 -0.10483056 0.01109535
0.011422785 0.06230149 -0.025839932 -0.10234768 -0.059316386 0.11629116 -0.005333046 0.09876776
0.0018338214 0.010756251 -0.027228089 0.007903238 -0.059943542 -0.15538538 0.086745255 0.006306257
0.04918226 -0.014932676 -0.0563134 0.06123268 -0.010905763 -0.024732482 0.08535269 -0.11584526
-0.019539792 0.21453628 -0.027773714 -0.028733136 -0.044518307 -0.006386988 -0.09319141 0.039956577
-0.11831914 -0.1325418 0.046515312 -0.01272777 -0.078792594 -0.11709995 -0.07982907 0.054751053
0.14457285 -0.092226185 -0.120066784 -0.038223185 0.057669535 0.077771276 0.0019716779 -0.105301864
-0.04270036 -0.123785496 -0.030829169 -0.08213307 0.007889828 0.109953105 -0.09503482 -0.16632615
0.06202309 0.11894806 -0.019301074 -0.012859907 -0.15129408 -0.0152328005 -0.09133293 -0.094265714
-0.08854108 0.030568397 -0.083091505 -0.03673526 0.045475308 -0.020510651 -0.02383847 0.00036711877
-0.08579662 0.095738485 -0.01372149 -0.03355448 -0.048214503 0.07048864 0.02435728 0.16896494
0.17313431 -0.06572778 0.112365715 -0.017907007 -0.0036507077 -0.021353543 0.01790198 -0.048998363
-0.12866631 0.034143 -0.14918081 0.056988183 -0.021916784 -0.036839 0.062312525 0.036176164
0.0030907127 0.15408438 -0.0018489577 0.017101834 -0.07869943 -0.0810157 -0.12766904 -0.042322405
-0.0067454614 -0.19805305 -0.037967402 -0.11921956 0.01450015 -0.11056741 -0.04408029 -0.06509634
-0.057947688 -0.07012866 0.07784385 -0.119485386 -0.059743658 -0.04697444 -0.013129912 -0.052600782
-0.106843196 0.10202083 0.05433 0.01898934 0.00866593 0.029840263 -0.028570265 0.11849165
0.031219816 -0.042959124 0.06488885 -0.072989374 0.048439566 0.10183249 0.013579818 0.012547348
-0.07709213 -0.010507456 -0.15248512 -0.0009313212 0.044600483 -0.2699116 -0.20172597 0.1910834
0.051878314 -0.01360596 -0.074403405 0.009817268 -0.06912448 -0.014007956 -0.073594846 0.015329422
0.076282874 -0.13119788 0.04955294 -0.08160659 -0.08736017 -0.08998184 -0.11174898 -0.09386088
0.07581728 -0.06936204 -0.17640342 0.12358259 -0.17063917 -0.11537769 0.14273573 0.06782647
0.147097 -0.075272344 -0.023079155 0.14285548 -0.050329223 0.13856807 0.055053007 0.049153563
-0.06410483 -0.11301876 0.08865517 -0.108743384 0.042203724 0.037609514 -0.08541655 -0.08900831

fc2.bias f4 [84]
00000000: 4c79 dc3d d173 88bd 5af7 a63e 07ae 7abd
00000010: 9aba 403e 135f ba3e 0ac3 92bd e5dd 963e
00000020: a2c1 313f e734 aa3e bbdc 673e c78a 22be
00000030: ec14 143f 101c 9dbd b624 713d 7162 e53d
00000040: 8a96 693f a59d 343e 9948 d33d 43b6 153e
00000050: d7e2 2d3e 1d58 b53e c8ad 123e 49c6 303e
00000060: 5b04 b9bd b683 aebc f5d9 bc3e 0011 ad3d
00000070: 7776 c0bb 200e e2bb c4e6 943e fc04 b6bd
00000080: 28f9 793d 2b20 c7bd 04fb 9ebc eb81 c1bd
00000090: 49a4 c3bd 3d00 90bd 9a9d 283e 240b b9bc
000000a0: 1133 cf3d e1a9 3a3d e13f 0b3e 525d 293d
000000b0: ecce 4f3f 9f39 9b3e 862a 513e d463 013d
000000c0: 4a9a 15be 8577 0abe ec2d 673e a021 6d3e
000000d0: 5f33 9f3d b589 b23d 5f56 eb3e 4e07 ddbd
000000e0: f081 6b3e f6ef 183e 1a30 97bd cbfc 883f
000000f0: 10b1 263f 5bd8 83bd 5f10 c5bd a445 e0bc
00000100: 163e c83d dd53 453d 0b94 ccbd 2efe 763d
00000110: add6 5e3d 6e57 ea3e 8648 dc3e b523 33be
00000120: 675a 183e 9186 e23b 7ec9 e03e dfb4 1d3f
00000130: 4b1e ba3e 50e3 963e 5c8b f23d d208 20be
00000140: 381d 17be c8f5 dd3e 3215 803d 008d 1bbd
0.10765323 -0.06662715 0.3261059 -0.06120112 0.18821183 0.3640066 -0.07166107 0.29466167
0.69436085 0.33243486 0.22642796 -0.15873252 0.57844424 -0.07671368 0.0588729 0.11200417
0.9124533 0.17638262 0.10316581 0.14620309 0.16981064 0.35418788 0.14324105 0.1726314
-0.09034034 -0.021303039 0.36885038 0.08450508 -0.005873497 -0.0068986565 0.2908231 -0.088876694
0.06102863 -0.097229324 -0.019406803 -0.09448608 -0.09552819 -0.070312954 0.1646637 -0.02258832
0.10117162 0.045572165 0.13598587 0.041348763 0.8117511 0.303174 0.20426378 0.031589344
-0.14609638 -0.13522156 0.22576112 0.23157358 0.0777347 0.08717672 0.45964333 -0.10792409
0.22998786 0.14935288 -0.073822215 1.0702146 0.65113926 -0.06437751 -0.09622263 -0.027376957
0.09777467 0.04817568 -0.099891745 0.060301 0.05440395 0.4576983 0.4302408 -0.1749409
0.14878236 0.006913014 0.43903726 0.6160411 0.36351237 0.294703 0.11842987 -0.15628365
-0.1475724 0.4335158 0.06254043 -0.037976265

fc3.weight f4 [10, 84]
00000000: 8be8 413c 12fb 01ba 8cf0 9e3d 2eef 713d
00000010: 51f8 57bd ade0 babc 8339 d8bb bbec aabe
00000020: 7be6 88be a771 a2bd 0c0f 83bc 6e4f d03d
00000030: 4f17 353b 4ce2 3e3d 3c00 963a b9c5 263e
00000040: 20fd d5be 9677 cfbb 2dbc 723d 2350 64bd
00000050: e917 d83d 6410 9a3d 4c91 9f3e 2804 6abe
00000060: 215a eb3c 24fc fb3d 0d8b 3f3d 0bf9 aabd
00000070: 8137 5c3e 575b 373e fe10 f83d b473 8fbd
00000080: 507b c73d 6ddd a53d 8d34 723e 880c 9fbd
00000090: b338 9ebd 75c3 3cba 459b 1f3d c854 8b3e
000000a0: afb0 083e aca3 53bd 6819 5fbe 2d88 083e
000000b0: 2225 c13d 7f3c d5bc e181 813e b1ff 3dbe
000000c0: 0211 91bc 5f39 d53d ec54 8f3e ec6c 43be
000000d0: 54d4 c2bd af20 0ebe 0b22 943d cc88 bdbd
000000e0: 56a6 043e 26d2 87bc 2567 1d3e f69e afbe
000000f0: 7bbe b7bd 306c c6bc ff39 27be 2c6a eebc
00000100: 379c 3a3b 98da ab3e a757 1e3e f621 18bd
00000110: 3ce2 883e 583a f8bd 5123 5dbe 94b1 123e
00000120: b4b8 6a3e 3452 2bbe 4368 21be d3de d33b
00000130: 40e0 c1bd 0f99 b9be 0da8 833c dda3 f93d
00000140: 0dbd 823e 8cb3 fe3d 8482 79be 8c43 1b3d
00000150: 68f6 22be 61ed d93d 2041 52be 07cb a0bd
00000160: 0018 bebd 9960 b73d c1ba 8b3e e9a4 673e
00000170: 9685 3bbe ea85 283e f5cc d93d c5f7 193e
00000180: e910 153e 91a8 6c3d 32ee c2bd efc0 71bd
00000190: a0c7 55be bba2 21be 3084 95bd a9cf b83c
000001a0: fbd0 10be a819 143e b0df 71be a439 8abe
000001b0: 86a9 63bd bcaf d0bc f554 43be 6537 6c3d
000001c0: d568 fcbd 8a15 a9be 3ef4 35bd d99f 733d
000001d0: 0f91 663e 4109 b9bd 4971 78bc 4a43 623c
000001e0: 82e7 103d 3712 1b3e 20d3 05be 6b00 a3bd
000001f0: 4cb3 143e 0c62 e83d c87d 85bd c787 b4bb
00000200: ffae 5abe 402e b83d b743 443d f5c1 16bd
00000210: 8087 473e df1f 8abd 0058 a63e 726a 2bbc
00000220: e7b3 b0bc 2d8e 883e 2c61 5dbe 7964 31bd
00000230: a1f1 2c3d dda4 84bd 8bd8 5fbd 8263 c5bd
00000240: 52bd 0fbe ec50 253e e10b 3e3e 0daa 8d3e
00000250: db56 f53c ffc0 58be a665 a5bd ccf8 c73d
00000260: 10af 5a3e 4aa9 5ebe ceae 2b3e f319 063c
00000270: 4210 1ebe 91b9 1abe c174 94bd 9d19 a8be
00000280: bd3a af3c 7790 49bc c57f 093e f3b2 af3e
00000290: d4bf b33e 1a86 3abe 8c80 403e b7a7 853e
000002a0: c4c9 68bd 6b64 0abe acc3 be3c c963 20be
000002b0: 0e1d bc3d c604 cb3a d7c0 32bd 0f0a 383d
000002c0: cf3f fa3c d0aa 36bd d401 223d 9037 f0bc
000002d0: 0266 d63d f39a a33c 95f4 dc3c 7df7 d8bc
000002e0: 2bbb 5a3e 449d 4a3e b6be b8bd 56e7 bebd
000002f0: 9186 81bd 6a9a 9bbe c08e 0d3e 92db f23c
00000300: 1df6 253e 6bf4 85bd eea6 95bd 15f9 18be
00000310: 383d 5d3e 34c3 6a3e 9dd5 973e 3fde d5bb
00000320: af85 6d3d 4c65 163c 5a89 b53d 4d21 00bc
00000330: b207 dfbd 874c af3d 81e1 c73c 9228 153e
00000340: 162e 80bd 9d0a 9cbc c50f 573e 53d6 c2be
00000350: 4416 243e 03fb b43d c68c 74bd a0fa eebd
00000360: 82a8 043e e339 963d 87ec 86bd 530b 543d
00000370: 8fc0 273e b8d6 6c3e 0811 ff3d 9b03 2c3e
00000380: 1beb 71be 13a1 95bd 6827 5abd a739 8e3c
00000390: 590a a93e 38cc abbd d830 e43d 1040 6cbd
000003a0: f949 083e 3a4d 493e 95d4 31bd ba71 94bd
000003b0: aae5 d3bd bff3 7e3e 0888 b83c 6e62 353d
000003c0: ed17 413e 26a2 3e3e a304 a9bd cc95 fb3d
000003d0: 44bb b7be 880e 0f3d 0835 8ebc b477 c1bd
000003e0: a98e 523d cf05 8d3e f683 343e 8176 44bd
000003f0: 82bc aa3d a04d c93c 8a38 60bd 7831 29be
0.011835228 -0.0004958372 0.077607244 0.05906599 -0.052727047 -0.022812212 -0.006598653 -0.33383736
-0.26738343 -0.07931834 -0.015998386 0.101714 0.0027632301 0.046602532 0.0011444162 0.16286363
-0.41794682 -0.0063313944 0.05926149 -0.055740487 0.105514355 0.075226575 0.3116554 -0.22853148
0.0287295 0.123039514 0.04676347 -0.083482824 0.21505548 0.17905937 0.12112616 -0.070044905
0.09740317 0.08098874 0.23652859 -0.07766062 -0.07725658 -0.0007200756 0.038966436 0.2721312
0.1334865 -0.05166976 -0.21787035 0.13333197 0.09430911 -0.026029823 0.25294402 -0.1855457
-0.017708305 0.10411333 0.27994478 -0.19084519 -0.095131546 -0.13879655 0.07233056 -0.092546076
0.12954077 -0.016579699 0.15371378 -0.34300965 -0.08971878 -0.02422151 -0.16330718 -0.029103361
0.002847446 0.3356521 0.15463124 -0.037141763 0.26735103 -0.12120503 -0.21595503 0.14325553
0.22922021 -0.16730577 -0.15762429 0.0064657717 -0.094666004 -0.36249587 0.016071344 0.121894576
0.2553486 0.124365896 -0.24366194 0.037906215 -0.15914309 0.106409796 -0.20532656 -0.078512244
-0.092819214 0.089539714 0.2729092 0.22621502 -0.18312678 0.16457334 0.106347956 0.15035923
0.14557232 0.057777945 -0.095180884 -0.059021886 -0.20876932 -0.15784733 -0.073006034 0.022559958
-0.1414222 0.14462912 -0.23620486 -0.269971 -0.055581592 -0.025474422 -0.19075377 0.057670016
-0.123246826 -0.33024246 -0.04442238 0.059478614 0.22516273 -0.09034968 -0.015163728 0.013809988
0.035377033 0.15143667 -0.13068819 -0.07959064 0.14521521 0.11346826 -0.065181315 -0.00550935
-0.21355818 0.089931965 0.04791614 -0.036806066 0.19485283 -0.0674436 0.32489014 -0.01046239
-0.02157016 0.26670972 -0.216191 -0.04330871 0.042222623 -0.06476758 -0.05464987 -0.0963812
-0.14037064 0.1614415 0.18559219 0.276688 0.029948642 -0.21167372 -0.080760285 0.09764251
0.21355844 -0.21744266 0.16765901 0.008184898 -0.1543589 -0.1510985 -0.072488315 -0.3283204
0.021390313 -0.0123025095 0.13427646 0.34316215 0.3510729 -0.18215218 0.18799037 0.2610452
-0.056833044 -0.13514869 0.023286663 -0.15663065 0.09185229 0.0015489093 -0.043640938 0.044931468
0.030548004 -0.044596493 0.039552525 -0.02932337 0.10468675 0.019971346 0.026972095 -0.0264852
0.21360461 0.19786555 -0.0902075 -0.093214676 -0.06324495 -0.30391246 0.13823986 0.029645715
0.16207166 -0.0654076 -0.0730723 -0.14938767 0.21605384 0.22926027 0.29655161 -0.006526738
0.05798882 0.0091794245 0.08864088 -0.0078204395 -0.1089014 0.08559518 0.02439952 0.14566258
-0.0625879 -0.01904803 0.2100211 -0.3805414 0.16024119 0.08836939 -0.059704565 -0.11668897
0.12954906 0.0733526 -0.06588083 0.051768612 0.16382049 0.23128784 0.1245442 0.1679825
-0.23624842 -0.07306113 -0.053260237 0.017361475 0.33015707 -0.08388561 0.11142129 -0.057678282
0.13309468 0.19658366 -0.043415625 -0.07248254 -0.10346539 0.2489767 0.022525802 0.044283323
0.18856783 0.18616542 -0.082528375 0.12284431 -0.3588506 0.034925967 -0.017359272 -0.0944666
0.051405583 0.27543494 0.17628464 -0.047964577 0.08336736 0.024573147 -0.05474142 -0.16522777

fc3.bias f4 [10]
00000000: 4cf3 83be 5f99 60bf 2375 a83d d447 e7be
00000010: f167 733f 0398 783e b2ac db3e 6b57 aabd
00000020: 23dd 413d 3289 49be
-0.25771558 -0.87734026 0.08225467 -0.45171988 0.95080477 0.24276738 0.42905194 -0.08317455
0.047330033 -0.19681242
